weights/textGenerator_words_1.pt (torch_old, 354690 bytes, 13 tensors)

embedding.weight f4 [713, 32]
000000 00 00 00 00 00 00 00 00 00 00 00 00 00 00 00 00
       0.0 0.0 0.0 0.0
000010 00 00 00 00 00 00 00 00 00 00 00 00 00 00 00 00
       0.0 0.0 0.0 0.0
000020 00 00 00 00 00 00 00 00 00 00 00 00 00 00 00 00
       0.0 0.0 0.0 0.0
000030 00 00 00 00 00 00 00 00 00 00 00 00 00 00 00 00
       0.0 0.0 0.0 0.0
000040 00 00 00 00 00 00 00 00 00 00 00 00 00 00 00 00
       0.0 0.0 0.0 0.0
000050 00 00 00 00 00 00 00 00 00 00 00 00 00 00 00 00
       0.0 0.0 0.0 0.0
000060 00 00 00 00 00 00 00 00 00 00 00 00 00 00 00 00
       0.0 0.0 0.0 0.0
000070 00 00 00 00 00 00 00 00 00 00 00 00 00 00 00 00
       0.0 0.0 0.0 0.0
000080 00 c1 90 bf 4d 3d 53 be 62 b4 c2 3e 86 47 37 3e
       -1.1308899 -0.20628853 0.38028246 0.17898378
000090 58 2a cf bf 7e 34 84 bf 76 ca 6a bf 95 a5 af bf
       -1.6184797 -1.0328519 -0.9171518 -1.3722407
0000a0 39 1f 86 3f e9 bd 9b 3e ee c8 e1 3f c5 ff 45 3f
       1.0478278 0.30418327 1.7639444 0.773434
0000b0 be bb 31 3f 36 e0 b1 3f b6 5f ef 3e 9c ba bf bf
       0.69427097 1.3896549 0.4675271 -1.4978824
0000c0 1f 51 40 3f d0 f8 88 be 55 eb dd bf 5e 4e e0 3d
       0.7512378 -0.2675233 -1.7337443 0.10952447
0000d0 bf 65 d8 be a9 71 5b 3f 0d 9a 7b bf 7c 00 72 3f
       -0.42265126 0.85720307 -0.9828194 0.9453199
0000e0 8e 79 0b 40 b5 02 53 bf 3b 5f 3e bf 9f a6 08 c0
       2.179294 -0.82426006 -0.7436406 -2.1351697
0000f0 1f 21 f1 3d 3b 0f 87 bd 7c 4f 86 3e 51 16 dd bf
       0.117738955 -0.06594702 0.26232517 -1.7272435
000100 0f f3 c8 be 5b 60 b7 bf 1e 3d b4 bc 08 9b 6f be
       -0.3924794 -1.432628 -0.0220018 -0.23398983
000110 ed 8d 00 be 25 b8 5b bd 0a e1 8e 3f 23 b8 d1 be
       -0.1255414 -0.05364241 1.1162426 -0.40960798
000120 2b 3b e7 3f 38 4f e2 3e d5 0d 62 3f 4b 24 2d 3f
       1.8064932 0.44201064 0.88302356 0.67633504
000130 fc 65 15 3d e7 d6 3b bf 17 53 16 c0 93 a0 4f 3f
       0.036474213 -0.7337479 -2.3488214 0.8110439
000140 77 36 23 be 81 5d 22 c0 be 6f fe 3e a0 ad 36 be
       -0.15938745 -2.536957 0.49694628 -0.1783967
000150 10 00 00 c0 79 4b 01 3e c0 b0 b6 bf e0 f5 05 c0
       -2.0000038 0.12626447 -1.427269 -2.093132
000160 2e 84 93 3f 64 65 6f 3f 85 51 99 3f 78 85 fa be
       1.1524713 0.93514085 1.1978003 -0.48929954
000170 54 13 85 3f da 18 88 3e 33 db f2 be 9d b1 20 3f
       1.0396523 0.2658146 -0.4743286 0.62771016
000180 8b 88 b9 3d 13 ae 86 be 1c 2b c5 3e 46 dc 75 bf
       0.09059247 -0.26304683 0.38509452 -0.96039236
000190 8b c1 bb 3f 23 23 9d 3f a3 8b 01 3f 5c 4b de 3e
       1.466844 1.2276348 0.50603694 0.4341687
0001a0 78 c7 e7 be 05 4f 0c 3f 4a 45 5c bf 05 a1 54 3e
       -0.4526937 0.54808074 -0.86043227 0.20764549
0001b0 d2 46 50 3e e4 51 55 3e 1a 40 0a c0 f4 e8 02 bf
       0.20339516 0.2083202 -2.1601624 -0.5113671
0001c0 14 6c f1 3f 2e f5 be bf a8 c9 9d 3f 32 3b bb bf
       1.8861108 -1.4918573 1.2327166 -1.462744
0001d0 65 a2 23 3f ae b7 26 3f 1d 83 99 3f a6 5c c4 bf
       0.6391967 0.6512402 1.1993138 -1.5340774
0001e0 00 b3 51 3a 61 cf 01 bf 05 ef 90 3f 43 d7 64 bf
       0.00079993904 -0.5070706 1.1322943 -0.89390963
0001f0 49 ab 7b bf 12 c7 89 3f cd c0 89 3f c3 15 b2 be
       -0.98308235 1.0763876 1.0761963 -0.34782228
000200 22 cd a4 3e 09 10 b1 bf e7 04 a9 3f 98 9d 4e 3f
       0.32187754 -1.3833019 1.3204621 0.8070922
000210 08 75 95 3f 2f 1e 08 c0 b2 77 4d 3f 64 12 3a 3f
       1.167634 -2.1268423 0.80260766 0.7268431
000220 92 f6 44 3f 8f 55 5e bf a3 af 89 3f 61 97 08 c0
       0.76938736 -0.868493 1.0756725 -2.1342394
000230 33 2d c6 3e 71 d3 4f bf 21 83 cd bf 74 73 03 3f
       0.3870636 -0.8118201 -1.6055642 0.5134804
000240 c7 04 5a c0 44 69 b5 3e e9 9d 3e bf ad d5 0a bf
       -3.4065416 0.35431874 -0.744597 -0.54232293
000250 7e aa 00 c0 ce 89 0d bf fc 1a 82 bf a0 21 80 bf
       -2.010406 -0.552884 -1.0164485 -1.0010262
000260 3c f9 c7 be b6 a3 e9 3e 2d 9e 65 be 3d ee e9 3f
       -0.39057338 0.45632714 -0.2242362 1.827583
000270 fa de 08 bf 37 91 aa 3f 5a 41 1f 3f 4b b5 06 3f
       -0.53465235 1.3325566 0.62209094 0.5262038
000280 c7 c6 e9 3f b3 b5 8e bf 9a f1 c0 3e 94 d4 07 3f
       1.8263787 -1.11492 0.37684327 0.53058743
000290 7b b3 6b c0 d2 0f be be 7a 3a 43 bf 5c 9d 4b 3e
       -3.6828296 -0.37121445 -0.76261103 0.19884247
0002a0 3a e6 09 bf 08 00 27 3f 85 78 fe 3f 75 ff 90 3e
       -0.5386692 0.6523442 1.988053 0.28319898
0002b0 53 01 d3 3f e0 54 23 bf 87 eb 89 3f 98 38 69 bf
       1.6484779 -0.63801384 1.0775002 -0.9110198
0002c0 d1 aa dd bf e0 20 3e 3f e5 30 96 bf 48 f9 ad 3e
       -1.7317754 0.74268913 -1.1733671 0.3397925
0002d0 b1 89 35 bf f2 b4 a3 3f e0 60 35 be 0f 39 ef be
       -0.70913225 1.2789595 -0.17712736 -0.4672322
0002e0 38 a2 00 3e ab 8e 15 3f 37 63 9b 3e 66 39 15 c0
       0.12561882 0.5842082 0.30349132 -2.3316283
0002f0 f6 f5 33 40 7c c1 03 3f 72 3d 70 3d 6c 08 3e be
       2.8118873 0.5146711 0.05865235 -0.185579
000300 0a e3 d1 3e 6f b1 e5 3e 58 6b 19 3e 4c c2 9d 3f
       0.4099353 0.44861934 0.14982355 1.232492
000310 84 97 68 3f 72 86 e2 3e e7 03 87 bf 20 e8 2a 3e
       0.90856194 0.442432 -1.0548066 0.16690111
000320 1c aa c6 bf 36 af 1d 3f f0 37 9b bc 7d 49 84 c0
       -1.5520663 0.61595476 -0.018947572 -4.1339707
000330 ea 45 9b bf 4e 5a 01 3f c8 c7 33 3f 6c 9d 6c 3f
       -1.2130711 0.5052842 0.70226717 0.92427707
000340 3d f1 47 3c a5 df 02 3f 5f 9f d5 3f df 5b 23 3f
       0.012203512 0.51122504 1.6689261 0.6381206
000350 d3 e5 94 bf 07 85 34 3f 75 e4 2d bf c0 06 1a bf
       -1.1632637 0.70515484 -0.6792672 -0.6016655
000360 4a e7 eb bf 84 e6 c7 3d de bf 8c 3e cf dc 76 bf
       -1.8429959 0.09760764 0.27490133 -0.9643068
000370 5e a3 bc be 18 99 37 bf 69 e2 6e bd ee da 48 3d
       -0.3684339 -0.7171798 -0.05832139 0.049036913
000380 db 8c ac 3f 7e 81 42 3f 75 89 bf 3f af ce 56 be
       1.3480486 0.7597884 1.4963824 -0.20977281
000390 12 58 c0 3e 16 aa ef 3e b0 56 14 3f 17 5f d2 3e
       0.37567192 0.46809453 0.57944775 0.41088173
0003a0 4e fd c6 be 4c 2e ea be 5d f7 b0 3c 69 66 b5 bf
       -0.3886513 -0.45738447 0.021602327 -1.4171878
0003b0 15 88 64 bf 3d f8 18 3e ba 3b 9c 3f 08 dc 1d 3f
       -0.89270145 0.14938445 1.2205727 0.61663866
0003c0 9e dc c6 bf 68 f9 a1 3f ab a8 73 3e 68 33 34 3e
       -1.5536077 1.2654238 0.2379481 0.17597735
0003d0 7e 63 0d 40 b4 8d 81 bf 2e 9d c4 bd 07 dd b9 3e
       2.2091975 -1.0121369 -0.09600292 0.36301443
0003e0 af 96 36 40 0e 03 e3 be 89 6b 3e bf 28 89 8f 3f
       2.852947 -0.44338268 -0.74382836 1.1213732
0003f0 1d 49 9e bf 85 fd 2d 3f d1 d3 53 bf fe 2c 8d bf
       -1.2366062 0.67964965 -0.8274508 -1.1029356

lstm_cell_1.weight_ih f4 [128, 32]
000000 f0 c9 bf be e3 1a ed be 66 03 a4 3e bb ad 85 be
       -0.37458754 -0.46309575 0.32033843 -0.26109108
000010 38 d3 62 be 42 36 19 bf 98 cc a5 3e 99 d6 ef be
       -0.22150886 -0.59848416 0.32382655 -0.46843413
000020 e9 b8 31 3f 8b c0 b6 be c8 9b 11 3f 14 2c 6f be
       0.69422776 -0.35693774 0.5687833 -0.23356658
000030 26 0a 0b bf 28 45 3a bf e6 e3 f0 3e a7 1e 13 3d
       -0.5431236 -0.72761774 0.47048873 0.035917904
000040 94 88 0b be cc 1a a3 3d a4 09 56 3f 49 3b 6e 3e
       -0.13626319 0.079640955 0.8360846 0.23264803
000050 4c ce 2b 3f 1d 98 14 3d ca 94 dc be 3c 19 bf 3d
       0.6711166 0.03627788 -0.43082267 0.09330985
000060 3d 77 07 3f 52 fa 5f 3e 68 eb e9 bd 05 43 a6 bd
       0.5291632 0.21872833 -0.11421853 -0.08118252
000070 80 b0 09 3f 91 19 00 3f 73 48 57 3f 8c 49 30 bf
       0.5378494 0.5003901 0.84094924 -0.68862224
000080 0c 0d e5 be 6e c0 05 bd 5a 49 2f bd 5f 41 13 3e
       -0.44736516 -0.03265422 -0.042794563 0.14380406
000090 35 91 bc bc cb 55 8d bd 8a 3b a8 be 1d b4 fd 3e
       -0.023018459 -0.06901129 -0.32857925 0.49551478
0000a0 19 48 02 3e f4 04 81 bd cc 52 38 bf ca 05 c0 be
       0.12722816 -0.06299773 -0.7200134 -0.37504417
0000b0 38 33 c9 3e 1e 7a e6 3e b3 db 94 3e a3 b0 1f bf
       0.3929689 0.45015043 0.29073867 -0.623789
0000c0 44 9d 93 3e 33 ee 50 bf 7b c6 b3 bd 11 26 68 3e
       0.28830922 -0.81613463 -0.087780915 0.22670771
0000d0 87 01 80 3e b1 19 34 bd 34 12 c3 bd 12 66 0c bf
       0.25001165 -0.043969814 -0.09524956 -0.54843247
0000e0 2f d4 42 bf 22 b9 2c be 41 e0 e6 be 6b 61 0f 3f
       -0.76105016 -0.16867498 -0.45092967 0.56008023
0000f0 5e 3d 07 3e 47 92 1f 3f dd 26 32 be 5b c5 10 3f
       0.13207003 0.62332577 -0.17397638 0.5655114
000100 68 11 e6 3e 18 0b 90 be 66 38 aa 3d 46 1a bf be
       0.44935155 -0.28133464 0.083115384 -0.37324733
000110 d6 ce b4 be e7 01 59 bf e1 69 0f bd 19 d3 11 3f
       -0.35314053 -0.8476853 -0.035013083 0.56962734
000120 2b da 2a be 8f 7a 9f 3e 5e 87 8e bd 88 c5 28 3f
       -0.16684787 0.31148192 -0.06959413 0.6592641
000130 26 ba 01 3f 26 31 0a bf 3d 4a e6 be 89 07 9b 3e
       0.50674665 -0.53981245 -0.44978514 0.30279186
000140 d5 a5 fe 3e b7 2f 7f bf ec 4d 3e be f6 2a d7 3d
       0.49735895 -0.9968218 -0.18584412 0.10506241
000150 f6 35 bd 3c 4d fa 97 be 1c 82 cd be 92 04 c0 3e
       0.02309702 -0.29683152 -0.40138328 0.37503487
000160 db 73 b8 3e ef f9 ca 3e 91 8b 01 bf d4 3d da 3d
       0.3602589 0.3964381 -0.50603586 0.10656324
000170 ac 0e 42 be 9a f4 0e 3e 7b 15 77 3d 0a cf 19 3f
       -0.1895091 0.13960496 0.06032322 0.6008154
000180 74 e7 ef be 5f a7 98 bc 71 67 5a 3f e4 6b 03 be
       -0.46856272 -0.018634496 0.8531409 -0.12834126
000190 6c e1 d9 be d2 bc 01 bf 64 bf 01 be ad b1 ed 3e
       -0.42554796 -0.5067874 -0.12670666 0.46424618
0001a0 79 af 6b 3e b5 19 e9 3c 57 cc cb 3e 5d ad e5 be
       0.23016156 0.02845464 0.39804336 -0.44858828
0001b0 6e 46 8a 3f a3 54 69 be b3 00 ce be d0 6f 4e 3f
       1.0802743 -0.22786193 -0.40234908 0.8063936
0001c0 dd 38 f9 be ba 11 7d 3d 7b c5 ee be 15 4e 41 be
       -0.48676196 0.061784483 -0.4663504 -0.18877442
0001d0 a8 6f 42 3f 84 cc fe be b8 d8 ea bd 2a 7c f1 3e
       0.75951624 -0.49765408 -0.11467117 0.47165042
0001e0 a1 15 c9 be c3 e3 9c be b0 c9 f5 3d 2b c5 94 3f
       -0.39274314 -0.30642518 0.120013595 1.1622671
0001f0 99 d1 94 3e 7d 90 71 3f 3e 0f 07 bf e7 2a ee bd
       0.2906616 0.94361097 -0.5275763 -0.11629277
000200 1a 0d e2 be 44 8f 31 bf 76 55 41 3f ce 05 1c 3e
       -0.4415062 -0.6935923 0.7552103 0.1523659
000210 cd 58 09 3e 6b c0 70 3e 9d fd 17 bf 4a cf 36 be
       0.13412781 0.23510902 -0.5937136 -0.17852512
000220 aa 4c 03 3e 0c 6e a4 3e 50 88 f4 bd 9c c4 95 bd
       0.12822214 0.3211521 -0.11940062 -0.07312891
000230 ae 26 9e be fb 8a 55 3f 0a 7a 49 be cc 95 40 3e
       -0.30888885 0.8341519 -0.1967546 0.18807143
000240 14 b3 f6 3e 66 f6 d5 be 86 03 b9 3e ad 9b dc 3d
       0.481835 -0.4178955 0.361355 0.1077188
000250 1e 24 cc be 7c 99 43 bf 53 3f 0b be 11 3e a2 be
       -0.39871305 -0.76406074 -0.13598375 -0.31687978
000260 80 ad 44 bf 0f 8e 39 bf e5 bb f7 3d b1 fa b8 be
       -0.7682724 -0.7248239 0.12096385 -0.36128762
000270 74 f5 0b 3f 30 cc 83 be 9e 7c 31 3f 9c 6f e7 bd
       0.54671407 -0.2574172 0.69330776 -0.11300585
000280 46 b2 97 be 83 40 1b 3d a9 de ce 3d 92 b7 3c 3c
       -0.296282 0.03790332 0.10101063 0.011518376
000290 be c2 9a 3e 72 6a 94 3e b6 a9 2e bf 03 3e c9 be
       0.30226701 0.2898746 -0.6822771 -0.39305124
0002a0 1e e3 27 3e 23 e5 d0 be d0 ca da 3d d0 06 3c 3f
       0.16395232 -0.40799817 0.10683215 0.73447895
0002b0 21 ed 37 3f 87 c9 3a be 17 39 c2 be 33 38 69 bf
       0.71846205 -0.18240939 -0.3793418 -0.9110138
0002c0 78 4a 9d 3f ae ff 91 3d 47 ac 7b bf 66 70 5a 3f
       1.2288351 0.07128845 -0.9830975 0.85327756
0002d0 d4 75 e3 bc 7d ff 34 be 97 74 d3 be 44 66 8d 3e
       -0.027766146 -0.17675586 -0.41299888 0.27617085
0002e0 0b 11 cc be 65 90 32 be 49 d0 a2 3e a5 f4 1a bf
       -0.39856753 -0.17437895 0.31799534 -0.6052955
0002f0 e2 ab f8 3e 7f 12 c0 3b 62 68 1b bf fa 97 41 bf
       0.48568636 0.00586158 -0.6070615 -0.7562252
000300 02 e1 fd bd 22 66 8a bc fd 3b 90 3e b8 73 60 be
       -0.123964325 -0.016894404 0.28170767 -0.21919143
000310 3d 5b e2 3e 96 3e 94 3f 34 35 76 bf 27 c0 64 3f
       0.44210234 1.15816 -0.9617493 0.893557
000320 4a 07 1f 3f 83 ed 7e bd 98 89 81 be 07 5d 93 bd
       0.621205 -0.062238228 -0.25300288 -0.07195478
000330 4b 8e 77 bf f9 fd 87 3e eb e2 af 3c fe 80 2d 3f
       -0.96701497 0.26560953 0.021470508 0.6777495
000340 3f 61 95 3e c6 12 e7 be a8 a0 b9 be ed fb 2c 3d
       0.29175755 -0.4513151 -0.36255383 0.042232443
000350 9a 93 1b bf a6 47 cc bd ee 1f dd 3d 88 d3 7f bf
       -0.607721 -0.09974603 0.10797106 -0.99932146
000360 62 11 9a be 9b b8 b0 be 7a 39 2c bd 16 48 d0 be
       -0.30091387 -0.34515843 -0.042047 -0.40679997
000370 53 b0 58 3d db 4b 93 3f 5c 27 c0 be 44 7a 8a be
       0.05290253 1.1507524 -0.3753003 -0.27046406
000380 dc 42 c9 3e 84 d9 b5 be 44 29 b0 bf 0a db 0e bf
       0.39308822 -0.35517514 -1.3762593 -0.5580298
000390 66 ce ae be 20 ed 60 be 46 f8 83 3e 48 95 bf be
       -0.34141845 -0.21965456 0.25775355 -0.3741858
0003a0 30 ce 6f be 43 3c 09 bd 9f ec 40 3f 08 dd 1b 3f
       -0.23418498 -0.033504736 0.75361055 0.6088414
0003b0 08 2a 96 be 0d 86 57 bf 75 e7 b6 3d d6 a9 9d bd
       -0.29328942 -0.8418892 0.08930866 -0.07698409
0003c0 29 b4 50 be b6 f3 80 be 5c 59 ea be 25 42 13 3c
       -0.20381226 -0.25185937 -0.457713 0.008987938
0003d0 ed ba e2 bb 6e c9 a3 3f c2 d5 15 3c 7b 22 b4 3e
       -0.006919256 1.2795846 0.009145202 0.35182557
0003e0 e0 c3 b6 3d 38 c1 eb be fe 40 4a 3e 6b 1b 47 3f
       0.08924079 -0.46045852 0.19751355 0.7777621
0003f0 23 4a bf bd d8 24 c8 bd 96 99 69 3d 55 c5 1a 3e
       -0.09340312 -0.097726524 0.057031237 0.15114339

lstm_cell_1.weight_hh f4 [128, 32]
000000 4c 97 7a be 45 36 96 bd bc c6 d8 bd b3 11 5d be
       -0.24471778 -0.0733457 -0.105847806 -0.21588783
000010 0a 69 81 bf 71 ff d9 be f8 22 08 bf 09 75 07 be
       -1.011018 -0.425777 -0.5317836 -0.13228239
000020 5a 04 c3 3e 25 3a bb 3e 4f 64 42 3f 63 3f bf 3e
       0.38089257 0.36567798 0.7593431 0.37353048
000030 cf 1f 33 3e a7 7a 6c be a5 64 3d 3e 57 3e 65 be
       0.17492603 -0.23093663 0.18495424 -0.22387062
000040 8b f4 33 3f 3c 8b f5 be 3a e5 6d be 81 93 c0 be
       0.7029502 -0.4795779 -0.23231974 -0.37612537
000050 a7 9e b6 be 6b 1f 14 be c2 15 ec be 5a 45 0d 3e
       -0.35667917 -0.1446511 -0.4611035 0.13795987
000060 16 86 1f 3e 3c 98 72 bd 0f 0e 04 3e e9 0c 9a 3e
       0.15578493 -0.059227213 0.12895988 0.30087975
000070 ec c9 83 3f 1f d9 12 bd 77 ab 0b 3f 1e 27 b8 bd
       1.0295997 -0.035851594 0.5455851 -0.08991836
000080 37 e9 42 be 13 76 30 3f eb ac e9 3e 74 5c 4c be
       -0.19034277 0.68930167 0.45639738 -0.19957143
000090 8b ed c1 3e da ee 65 be e9 43 e5 3e 94 78 14 be
       0.37876543 -0.22454396 0.44778374 -0.14499122
0000a0 19 99 85 3e d4 2b 69 3f 37 61 68 3e 04 37 20 3e
       0.26093367 0.910825 0.22693335 0.15645987
0000b0 27 bf 76 3f e1 34 e5 be 57 15 1c bf bc a4 04 3f
       0.96385425 -0.44766906 -0.6097006 0.51813865
0000c0 2f c7 71 be ca 72 0a be fd 23 b0 bd e9 39 85 3e
       -0.23611139 -0.13520351 -0.08600614 0.26020744
0000d0 a0 f3 08 3f 86 ec 6a be d1 f6 65 3b fc 27 9e be
       0.5349674 -0.22941789 0.003508974 -0.3088988
0000e0 49 66 af be de 92 ff 3e 17 ed 8c 3d b0 6d 51 3f
       -0.34257725 0.49916738 0.06881159 0.81807995
0000f0 02 f3 11 bf 7c 82 bd 3d 72 1d 97 3e 23 15 26 3f
       -0.57011425 0.092534035 0.29514652 0.64876
000100 0e a4 55 3e c7 72 19 3c 56 7f 5f 3f e3 89 00 3f
       0.20863363 0.009365744 0.87303674 0.502104
000110 d7 e7 34 3d 40 9d ee 3e e7 f0 8e bd a1 79 8e 3e
       0.044166412 0.46604347 -0.06979542 0.2782717
000120 57 bb 0e bf 30 db d0 3e 82 db a5 be 93 e7 7a be
       -0.5575461 0.40792227 -0.32394034 -0.24502401
000130 2d 1a 4f 3d f5 4a c5 be 2f 25 08 3d 24 e2 15 3c
       0.050562073 -0.3853375 0.033238586 0.009148154
000140 1e 32 0f 3e 43 c5 a3 be 07 4e 14 3e ff 8b f5 be
       0.13983962 -0.31986436 0.1448289 -0.4795837
000150 a2 95 20 bf ef 0f 40 bf d4 a8 50 3f fe 02 f8 3d
       -0.6272832 -0.7502431 0.8150761 0.12109946
000160 46 9f 08 3e b5 b4 0b bf 43 83 5f 3e 58 c5 2a 3e
       0.13342008 -0.5457261 0.21827416 0.16676843
000170 12 0f 9d bd 50 1e dc 3e e9 dd 5d 3d e0 27 cc 3e
       -0.0766889 0.42991877 0.05416671 0.39874172
000180 13 c4 96 bd ae 75 89 bf 12 c9 bd 3d 19 20 c8 be
       -0.07361617 -1.0739038 0.09266867 -0.3908699
000190 40 0e 1d 3d 5b 1b 31 be 92 fc 23 bd e3 44 a6 3d
       0.038343668 -0.17295592 -0.04003579 0.08118608
0001a0 f1 ea b0 3e b6 2e 1e bf ae 04 75 be 9b ac 54 3d
       0.34554246 -0.61790025 -0.23927566 0.051922422
0001b0 af 61 08 3f 67 fc e3 3e 63 a6 3e 3e 20 ed 9c 3e
       0.53274053 0.44528505 0.18618159 0.30649662
0001c0 74 fd 08 3e 04 2f 35 3f c5 12 bb 3c 70 b2 f2 3d
       0.13377935 0.70774865 0.022836098 0.118504405
0001d0 78 4d 34 3f 7c 08 9d be 74 64 2c 3f 74 b7 99 3e
       0.7043071 -0.30670536 0.6734078 0.30022776
0001e0 a2 a4 91 be a2 67 b8 3d 6a 09 d6 be e5 70 6f bf
       -0.28445917 0.090041414 -0.41804057 -0.9353164
0001f0 e1 0d 44 3e 40 37 59 bf f6 0a 1d be 15 ca 64 bd
       0.1914592 -0.8484993 -0.15336213 -0.055856783
000200 8d a8 d4 bd a5 f8 82 3b 29 c5 d4 3e d0 ba b7 3e
       -0.10383711 0.003996926 0.4155667 0.35884714
000210 23 9c c9 3e 50 b4 2a bf f0 65 64 be fc c0 03 bf
       0.39376935 -0.66681385 -0.22304511 -0.51466346
000220 13 54 c3 3e 8b a8 6d 3d dc 73 8f 3d 75 5b 1b 3f
       0.3815008 0.058022063 0.0700452 0.6068643
000230 74 cb 4f 3e 71 e7 6b 3e 90 65 0d 3f 91 e3 5d bc
       0.20292455 0.23037507 0.552331 -0.013543026
000240 f9 b1 79 3e 75 1a 26 bf d3 bc 54 3e 08 75 fc be
       0.24384297 -0.6488412 0.20775156 -0.49308038
000250 aa ea 5c 3f 34 4a ad 3a 63 5c de 3d 99 ba c3 3d
       0.8629557 0.0013220967 0.10857465 0.09557075
000260 5c 0a 8d bd 74 e0 04 be 15 25 5c bf c9 1b 2d 3f
       -0.068867415 -0.12976247 -0.8599408 0.6762052
000270 12 af 7a 3e ff b3 11 3f 25 bd 0f 3f d9 1d 21 3e
       0.24480847 0.5691528 0.56147987 0.15734042
000280 16 d0 bc 3e f2 96 b9 be d2 89 21 3f a4 61 ca be
       0.36877507 -0.36247975 0.6310092 -0.3952762
000290 48 a1 1a 3f 6a c9 d1 be 11 80 1a be c4 d9 80 bd
       0.60402346 -0.4097398 -0.15087916 -0.062915355
0002a0 98 b0 03 bf e5 8a 86 be 8c e7 01 3e d8 5f 40 3e
       -0.51441336 -0.26277843 0.12685984 0.18786561
0002b0 f0 ae 50 bf 89 7c cf be 4d d0 48 3f 74 59 95 be
       -0.81516933 -0.405247 0.7844284 -0.2916981
0002c0 a4 a8 17 bf bc f9 1b 3e 5e 77 e5 be 45 69 6d be
       -0.592417 0.15231985 -0.44817632 -0.23184688
0002d0 5a 0f a9 be a5 a8 9c 3e ac 33 82 3d 87 42 51 bf
       -0.33019525 0.30597416 0.06357512 -0.8174214
0002e0 de 13 ac 3e 86 80 0d be 15 76 9a be 7c 3f 3f bf
       0.33608907 -0.13818559 -0.30168214 -0.74706244
0002f0 a3 0e ef 3e 7f bf 8b be 09 8a 2e 3f b8 1f 27 bf
       0.46690854 -0.27294537 0.68179375 -0.65282774
000300 ae 14 8e 3e c4 70 08 3e 98 07 bd 3e be 16 1f bf
       0.27750152 0.13324267 0.36919856 -0.62144077
000310 fe d0 12 3e a1 fb 26 bd a7 3f 51 3c e0 d6 03 3f
       0.14337537 -0.040767316 0.012771524 0.5149975
000320 0a 7e 45 bf bf 2c 19 be 14 01 08 3e 0f 41 a3 3e
       -0.77145445 -0.14958476 0.13281661 0.31885573
000330 05 99 ca be cf 88 4f 3e 5e 75 17 be 01 03 a2 be
       -0.3956987 0.20267032 -0.14790866 -0.31642917
000340 c7 8f a6 3e d6 02 07 bf 75 d4 60 3e e7 5d 98 be
       0.32531568 -0.527387 0.21956046 -0.29759142
000350 6a 99 f4 bb 59 c4 b3 be 4a fa 07 3f 29 fb 17 3e
       -0.0074645774 -0.3511074 0.53116286 0.14841904
000360 bc ce 2d 3f 23 01 70 be 86 3a f2 be 69 c4 97 be
       0.67893577 -0.23437934 -0.47310275 -0.29642037
000370 69 60 f2 3e 18 19 36 bf d2 ba dc 3e 1b 9a e9 bc
       0.4733918 -0.7113204 0.43111283 -0.028515866
000380 6c a7 75 3c 5d ca 6d bd 38 31 e8 bd f0 36 ef 3d
       0.01499353 -0.058054317 -0.11337513 0.116804
000390 3e c9 9f bd 9c 1f 57 be 96 2a 2e 3f 47 b9 a9 3d
       -0.07802056 -0.21008152 0.6803373 0.08287292
0003a0 89 91 52 bd 13 f0 58 bf 06 8f 9f bd 1b c5 ca be
       -0.051408324 -0.84741324 -0.077909514 -0.39603505
0003b0 c0 da f3 be 1e d3 e6 bc 61 40 61 3e 5b 58 1a be
       -0.4762783 -0.02817684 0.21997215 -0.15072767
0003c0 d2 a0 a6 bf 8c 7e 03 3e 7e 29 fc 3c 8a a9 b1 bd
       -1.3017828 0.12841243 0.030781504 -0.08674915
0003d0 bf 5f 6f 3e e9 7a b6 be 33 21 92 bd 0c 30 7a 3e
       0.23376368 -0.35640648 -0.071352385 0.24432391
0003e0 6e 64 86 3e 32 06 c5 be 9f c4 c5 bf 4b bb 21 3e
       0.26248497 -0.3848129 -1.5450629 0.15794103
0003f0 40 80 6e bd 54 f5 05 3e e1 13 87 3c 1c ff 20 bf
       -0.058227777 0.13081867 0.016488971 -0.62889266

lstm_cell_1.bias_ih f4 [128]
000000 f7 d0 0a 3f ee 0a 72 3f 19 02 88 3f f7 53 71 3e
       0.54225105 0.9454793 1.062564 0.23567186
000010 b1 0a 9c 3e d5 b2 d0 3d dc 05 66 3e be 9a f6 3e
       0.30476907 0.101903595 0.22463173 0.48164934
000020 14 91 8b 3e 4a a2 9e 3e ad 26 ba 3d fc 9a 2b 3f
       0.27259123 0.30983192 0.09089408 0.6703336
000030 4d 54 d3 3e 08 23 b5 3e 27 f5 23 3f c6 58 23 be
       0.41275254 0.3537829 0.6404595 -0.15951833
000040 67 e7 ab 3e 34 b5 11 3f 13 d8 c1 3e 60 2f a8 3e
       0.33574983 0.5691712 0.37860164 0.32848644
000050 b8 87 4f be fa 00 bd 3c 9e bc 1d 3f b7 67 cf 3e
       -0.20266616 0.023071755 0.6161593 0.40508816
000060 02 e8 13 3f 05 78 b5 3e 50 79 91 3e c3 24 92 3e
       0.5777589 0.3544313 0.28412867 0.28543672
000070 34 25 b2 3c 30 d4 eb 3e 24 cc 27 3f d5 4e 87 3e
       0.021746255 0.46060324 0.6554587 0.26427332
000080 8a 4d e3 be 27 8a b4 bf b1 ce 53 bf f3 e5 cb be
       -0.44395095 -1.4104661 -0.8273726 -0.39823875
000090 43 76 e2 be 6c 19 64 bf b3 99 f1 be a2 1b 51 bf
       -0.44230852 -0.8910129 -0.47187576 -0.8168279
0000a0 dc 28 ff be dc 2f 74 bf b9 80 00 bf 55 65 af be
       -0.4983586 -0.9538553 -0.50196415 -0.34256998
0000b0 b9 71 d2 be 72 3a 9c bf 27 2b 96 bf 0a 51 f5 be
       -0.41102389 -1.2205336 -1.1731919 -0.4791339
0000c0 1f 23 d9 be 45 aa 64 bf 5b 3c 28 bf 2c 15 3c bf
       -0.42409608 -0.8932231 -0.65717095 -0.73469806
0000d0 bb 51 6d bf 32 d7 cb be 9f 66 12 bf 69 d3 3f bf
       -0.92702836 -0.39812618 -0.5718784 -0.7493196
0000e0 cb 85 18 bf fb 54 6d bf cf d7 86 bf d1 ad 5d bf
       -0.5957915 -0.92707795 -1.053461 -0.8659335
0000f0 ba 19 01 bf b3 a1 56 bf 27 68 85 bf 26 55 02 bf
       -0.5042988 -0.83840483 -1.042241 -0.50911176
000100 4b 9c 09 3e 9a 6a 8a 3e f9 09 90 3d 7b e9 37 bd
       0.13438527 0.27034456 0.07033152 -0.0449004
000110 8d 36 31 3e 8f 48 f6 3e 1c aa 84 bb ef f8 39 3e
       0.17305966 0.48102233 -0.004048599 0.18161367
000120 6a 24 28 be e8 af f6 3d 8b 1a d7 3d 3f 9f 04 3e
       -0.16420141 0.1204527 0.105031095 0.12951373
000130 d5 2c d0 bd 8a 2f 8b 3d 57 22 25 bc ff 45 59 3d
       -0.10164801 0.06796177 -0.010078988 0.05304527
000140 48 ea 86 bd bd b1 06 3e e6 19 f5 bc b3 39 95 be
       -0.06587654 0.1315374 -0.029919576 -0.29145584
000150 c6 f5 2a bf 7e 59 ee bc c2 e1 aa 3e 30 52 35 be
       -0.6678127 -0.029095408 0.33375365 -0.17707133
000160 63 ee 77 3e 2c d2 4d bd b3 dd 88 3d 19 e2 83 3e
       0.24212031 -0.050249264 0.06682911 0.25758436
000170 c9 7f 20 3d 64 41 7d be a4 d1 4c 3e 34 a0 38 3e
       0.039184365 -0.24731976 0.20001847 0.18029863
000180 52 78 fd 3c 67 ea cf 3e fe 4d fa 3e f2 10 7a 3e
       0.030941162 0.40608522 0.48887628 0.24420527
000190 e6 02 8c 3d a4 96 47 3e c8 5f 19 3d 88 03 ba 3e
       0.0683649 0.19491059 0.03744486 0.3633082
0001a0 c9 a0 33 3e 95 3d e4 3e 68 5f 76 bd 50 5f 0a be
       0.17541803 0.44578233 -0.06014958 -0.13512921
0001b0 1d e8 da 3b 1b e2 b2 3e 45 7a 32 3f fa 66 03 3f
       0.006680502 0.3493813 0.6971782 0.51329005
0001c0 56 19 05 3d 8c d3 07 3e e6 cc f4 3e 90 49 87 3e
       0.032494865 0.13264292 0.47812575 0.2642331
0001d0 f0 7f fe 3e 9f 4d d2 3e 3d 3a 36 3f d8 2b f5 3d
       0.49706984 0.41074845 0.71182615 0.11971253
0001e0 b2 a7 41 3e 79 fc 33 3e 0a bb d9 3e 08 aa f0 3e
       0.18911627 0.1757678 0.42525512 0.47004724
0001f0 a5 d9 a8 3e 6d 01 68 3e 4c ae 17 3e 5c 8d b8 3e
       0.3297855 0.22656794 0.14812583 0.3604535

lstm_cell_1.bias_hh f4 [128]
000000 bb 09 bc 3e 1b 7a 4d 3f 41 30 81 3f be 62 0b 3e
       0.36726174 0.80264443 1.0092851 0.13611886
000010 db 1a af 3e 1b b3 9d 3e 67 a8 e1 3d 37 7c 7b 3e
       0.34200177 0.3080071 0.11018448 0.24559103
000020 0f a8 81 3e 08 e1 9b 3e 75 aa 80 3e ee 2a 12 3f
       0.2532353 0.30445123 0.25130048 0.57096756
000030 d0 e6 ae 3e 9b 29 86 3e 7e e8 03 3f 06 ae cb bd
       0.3416047 0.26203617 0.5152663 -0.09945302
000040 c1 9f ac 3e 7d a0 8c 3e 35 b6 fe 3e 83 b9 0e 3e
       0.33715633 0.27466193 0.49748388 0.13937955
000050 08 b2 52 be 91 ff 80 bd c6 76 3b 3f cf f6 68 3e
       -0.20575726 -0.062987454 0.7322811 0.227504
000060 70 54 11 3f 7d 5b b8 3e be db 85 3e c2 f4 ab 3e
       0.56769466 0.360073 0.26144212 0.33585173
000070 d8 88 6b 3e d0 30 af 3e 09 72 a0 3e 1f c3 a3 3e
       0.2300142 0.34216928 0.31337002 0.31984803
000080 2a f0 20 bf f1 8c b6 bf 0b 3e 48 bf 5e bc 0c bf
       -0.6286646 -1.4261762 -0.7821967 -0.54974926
000090 c7 bb e6 be 38 39 50 bf bc 1b 38 bf db 47 79 bf
       -0.45065138 -0.8133731 -0.7191732 -0.9737527
0000a0 fb d6 e0 be aa 53 81 bf 15 ce f8 be 5c 14 a3 be
       -0.43914017 -1.0103657 -0.48594728 -0.3185147
0000b0 ab 0c 8d be 2d 56 91 bf b5 0a 8d bf d8 5e 08 bf
       -0.27548727 -1.1354424 -1.1018893 -0.5326972
0000c0 ac 94 5d be e1 1f 77 bf c9 eb 5c bf 15 cc 2e bf
       -0.21638745 -0.9653302 -0.8629728 -0.68280154
0000d0 ab 21 6c bf 61 69 25 bf 8d e8 2d bf ff 81 2c bf
       -0.92238873 -0.6461392 -0.6793297 -0.6738586
0000e0 cf 7e d7 be 22 e2 8d bf ad eb 86 bf 31 8c 35 bf
       -0.42088935 -1.1084635 -1.0540673 -0.7091704
0000f0 07 94 dd be f7 ab 12 bf 7e 46 92 bf a6 6d 14 bf
       -0.43276998 -0.5729365 -1.1427763 -0.5797981
000100 5d 52 56 3e 8a a4 ea 3d c0 3d d7 3c 3b 67 1a 3c
       0.20929857 0.114571646 0.026274562 0.009424026
000110 81 d7 50 3e 29 30 f4 3e 98 d4 fd 3d 02 e4 ab 3d
       0.20394708 0.47692993 0.12394065 0.083930984
000120 41 a6 f2 bd 15 ab 96 3d d8 55 7d 3e a8 8f ef 3e
       -0.11848117 0.0735685 0.24739778 0.4678929
000130 9e db 50 bc e2 41 5d 3e 24 4c 61 be a6 9a ef 3d
       -0.012747673 0.21607164 -0.22001702 0.11699419
000140 5b ab 21 3e ee 48 8a 3e 81 b2 84 3d eb 3e 95 be
       0.15788023 0.27008766 0.064793594 -0.29149565
000150 cf 68 12 bf e2 84 cc bd 96 b7 ee 3e d0 7c 9d be
       -0.57191175 -0.09986283 0.4662444 -0.30759287
000160 b2 aa db 3d b4 31 8b be c7 01 0b be a8 5f 95 3e
       0.10725917 -0.27186358 -0.13574897 0.29174542
000170 89 ee 79 bc 8d ef 8b be 62 03 a4 3d b3 13 47 3d
       -0.015254625 -0.273312 0.08008458 0.04860277
000180 e8 47 a1 3d f0 b3 ee 3e 4b aa 3f 3f fb 56 84 3e
       0.07875043 0.46621656 0.7486922 0.2584761
000190 8a 86 6d 3e 34 80 41 3e 26 60 91 3d ba 80 06 3f
       0.23195854 0.18896562 0.07098417 0.5254017
0001a0 d8 08 78 3e 52 5a 1b 3f 4f 9a 6e 3e f3 01 25 bc
       0.24222124 0.6068469 0.23301052 -0.0100712655
0001b0 cd cf b1 bd fc ea 0e 3e bf 57 0f 3f 9e a6 34 3f
       -0.08682213 0.13956827 0.55993265 0.7056674
0001c0 5b 2f a5 3e 11 50 bb 3e 5b cb fd 3e 87 6e 5a 3e
       0.32262692 0.36584523 0.4956921 0.21331225
0001d0 fe 78 a1 3e e3 41 ad 3e d8 b4 0b 3f 56 54 5d bd
       0.31537622 0.3383933 0.5457282 -0.054035507
0001e0 2b 75 be 3e 83 35 ce 3e 30 2a df 3e 2c 41 fd 3e
       0.37198767 0.402752 0.43586874 0.49463785
0001f0 1b aa b0 3e 66 df 89 3e 0c c5 15 bd b6 bc ba 3e
       0.3450478 0.26928252 -0.03656487 0.364721

lstm_cell_2.weight_ih f4 [128, 32]
000000 a9 e5 d3 be fb 80 af bf 18 63 71 be 0e d4 88 3e
       -0.41386154 -1.3711237 -0.23572958 0.26724285
000010 52 15 8d 3f 08 db fa 3d 83 64 20 bf f1 51 34 be
       1.1022131 0.12248808 -0.6265337 -0.17609383
000020 be 3d 24 3f c9 ba 7f bf c2 2d 10 3e 1e 4d 97 3e
       0.6415671 -0.99894387 0.14079955 0.29551023
000030 a4 85 ae be f0 3d d8 3e 8e cb 04 bf ad 9c 79 3d
       -0.34086335 0.42234755 -0.518731 0.060940433
000040 51 a8 43 3f 62 66 56 bd 97 73 42 3e a0 00 af bf
       0.76428705 -0.052343734 0.18989407 -1.3672066
000050 cb 71 23 bd f5 44 9b bd b8 20 cd 3e 88 85 68 3f
       -0.039903443 -0.07581512 0.40064025 0.9082875
000060 4d 2f 6c be f9 0d 78 bf df 5e 07 bb 6f da 1a be
       -0.23064919 -0.9689632 -0.0020655913 -0.15122388
000070 9b e7 73 3f 5f 57 f1 3f dd 82 c0 bf bb fd d8 be
       0.95275277 1.8854789 -1.5039936 -0.4238108
000080 e0 21 39 3f 2d 2d 15 3f 61 7e 50 be 9a 2d 86 bf
       0.72317314 0.5827206 -0.2036071 -1.0482666
000090 c6 12 4c 3d c6 9e 46 3e 44 d8 c7 bd 16 19 3d 3d
       0.04982259 0.19396505 -0.09758046 0.046166502
0000a0 b6 79 81 bf 37 ca e5 3c d3 57 0c bf e7 dd a6 be
       -1.0115268 0.028050525 -0.5482151 -0.32591173
0000b0 8f 5d 1d bf 1e 5a 9b 3e 49 19 6b 3f c8 e9 16 bf
       -0.61470884 0.3034219 0.9183546 -0.5895047
0000c0 dc 89 d1 bf 83 14 1a 3f a2 9e 2d bf f0 d1 f3 bd
       -1.6370196 0.6018755 -0.6782018 -0.11905277
0000d0 05 23 a9 3e 9a c9 27 be a9 a8 8d 3e 51 fd 51 be
       0.3303453 -0.16385499 0.2766774 -0.20506789
0000e0 c1 b0 a9 3f b3 94 45 be 3e 5b e3 3d 78 d8 d3 3e
       1.3257066 -0.19295006 0.111013874 0.4137609
0000f0 11 92 80 bc 65 5b da be 44 f8 18 bf d1 2f 6a bf
       -0.01569465 -0.42647853 -0.59753823 -0.9147921
000100 47 c7 a3 3e 31 29 cb bd 0f 26 07 bf 6b 7d a6 bd
       0.31987974 -0.09919966 -0.5279245 -0.0812939
000110 58 22 c1 be 49 81 1b bf 4f c8 1a 3f a9 09 2e bf
       -0.37721515 -0.6074415 0.60461897 -0.6798349
000120 64 11 2d 3f 5c a6 4e 3f f7 37 ca 3f f4 a4 98 3d
       0.6760466 0.80722594 1.5798329 0.07453337
000130 0b 9c ca be 4a e9 e6 3d 31 ab 1e 3f 0b b1 0a be
       -0.39572176 0.11274965 0.6197997 -0.13544099
000140 eb 44 73 bf 0c 41 1c be 6b c8 a0 be 8d a8 82 3e
       -0.95027035 -0.15259188 -0.31402907 0.2551922
000150 8f 13 31 3f be 84 d0 3e 55 ba 46 3f 1c 85 3f be
       0.6917047 0.40726274 0.7762807 -0.18703121
000160 2b b1 03 3f df d7 39 bf 2e 57 0e bf 43 67 12 bf
       0.5144221 -0.7259502 -0.55601776 -0.57188815
000170 3b fc 2b 3f f7 b6 d4 3f a8 0d a5 bd b6 53 7a be
       0.6718175 1.6618336 -0.08059245 -0.24445996
000180 18 f7 0c 3f 08 58 60 3f a5 6f 5b 3f aa 4a a1 3f
       0.55064535 0.87634325 0.8571723 1.2600911
000190 88 2c b5 3f 8c a8 9e bc 5f 46 22 bf a8 9b df bd
       1.4154215 -0.019367479 -0.6338863 -0.10918361
0001a0 a1 c4 08 be 58 ea 30 bd 5e 16 40 be be d2 8a be
       -0.13356258 -0.043192238 -0.18758532 -0.2711391
0001b0 85 80 da 3d b4 1b ea be 26 d4 25 3f ef 7a 48 bf
       0.106690444 -0.4572426 0.6477684 -0.7831258
0001c0 b1 07 88 3c cc 1d 20 bd c9 2e 37 bf cf 45 97 bf
       0.01660523 -0.039090917 -0.71555763 -1.1818179
0001d0 b7 70 39 3f 0c 51 95 bf f0 52 4c bf 0f a5 47 bf
       0.72437614 -1.1665359 -0.7981405 -0.77986234
0001e0 01 84 eb 3e 1f 18 14 bf c5 0b 28 3f f2 d6 9b 3d
       0.45999148 -0.57849306 0.6564296 0.07609357
0001f0 4a db 89 3f 4e 21 21 3f 38 b5 07 3e 4a 3d f8 3e
       1.0770047 0.62941444 0.13252723 0.4848426
000200 8d 0d 35 3f 0a da d1 be fc 64 42 bf f4 6a 5b bf
       0.707238 -0.40986663 -0.7593534 -0.8571007
000210 d8 66 67 3f 2a b8 b5 be 37 49 66 3f 6e ed a4 3b
       0.903913 -0.3549207 0.89955467 0.0050331866
000220 c3 0d ef 3e 3c b9 a8 3e c9 b4 c7 3f 0b 4f 8e 3e
       0.46690187 0.32953823 1.5602046 0.2779468
000230 09 6d 5b 3e 0d 7e a4 be 84 46 4e 3f d7 94 27 bf
       0.21428312 -0.3212742 0.8057635 -0.65461487
000240 3e 6b 88 be 99 ff 28 bf 22 f9 11 bd ce 0c cc be
       -0.2664432 -0.6601501 -0.035637982 -0.3985352
000250 ef ff ba 3e f1 43 47 3f 60 89 44 3f e6 7e fc bd
       0.36523387 0.77838045 0.7677212 -0.123288915
000260 0a 38 d2 bd a7 6e c6 3e a9 64 21 bf c3 0e 57 bf
       -0.10264595 0.38756296 -0.6304422 -0.840069
000270 6f fd 3d be ad 52 ed be e6 64 96 3f ed c5 e9 be
       -0.18553708 -0.4635214 1.1749542 -0.45658818
000280 9b cc c8 3d 42 60 99 bf e0 8b 8b bd 0b d7 0f bf
       0.098046504 -1.19825 -0.068137884 -0.56187505
000290 d0 5a bf 3e e9 7b 27 bf c7 e2 64 be d8 0c d4 bf
       0.37373972 -0.65423447 -0.22352134 -1.656642
0002a0 8f 77 d7 be 52 62 53 3f ee 2b 96 be 36 7e d5 3e
       -0.42083403 0.825719 -0.2933039 0.41697854
0002b0 42 db 40 bf 15 9b 10 3f 1d f6 76 bf ae 98 b8 bd
       -0.7533456 0.56486636 -0.9646929 -0.09013496
0002c0 ce 00 08 be b3 3b ad be a6 98 a5 be 30 01 0b 3f
       -0.13281557 -0.3383461 -0.32343024 0.54298687
0002d0 8d 5c 3b 3e 53 a8 94 3e b6 4b 34 bd 12 df c2 3e
       0.18297024 0.2903467 -0.044017516 0.38060814
0002e0 02 cd a2 3f 53 13 1f bf 87 7a c6 be c2 58 99 be
       1.2718813 -0.6213886 -0.38765356 -0.2995053
0002f0 11 15 f1 3d 75 36 c0 3d bb c1 1c bf 6f dd b1 be
       0.11771596 0.09385387 -0.6123311 -0.34739253
000300 e0 42 d0 be cb c8 a4 3e aa da b0 3e a1 72 d7 be
       -0.40676022 0.32184443 0.34541827 -0.42079642
000310 97 19 14 be 99 f5 7f bf 52 92 83 be 01 d9 00 3f
       -0.14462887 -0.9998413 -0.2569757 0.5033112
000320 44 5b b3 be ad 80 1a be 65 79 5e 3f 49 20 7e 3e
       -0.35030568 -0.15088148 0.86903983 0.24817003
000330 8e 92 82 3e 6b f7 a9 3d 57 8b 83 3f d0 3b 1b 3f
       0.25502437 0.08299144 1.0276898 0.6063814
000340 f2 23 20 bf 68 32 8d 3e c8 ea a3 be 74 a0 42 bf
       -0.6255485 0.2757752 -0.3201506 -0.7602608
000350 d9 05 2f bf 00 fc 1d bf 58 5c f9 bc 53 07 4a 3f
       -0.683683 -0.61712646 -0.03043954 0.78917426
000360 b4 40 c8 3e 4a bd 43 bf c1 82 39 3f 81 4f 0c 3f
       0.39111865 -0.7646071 0.7246514 0.54808813
000370 d9 e2 96 be 95 d4 ad 3e 67 30 9e be 96 32 8d 3f
       -0.29469946 0.3395125 -0.30896303 1.1031063
000380 fd 15 ba 3e 0f 1f d2 3e 07 07 36 3e 5b 39 60 3e
       0.363449 0.4103932 0.17776118 0.2189688
000390 62 55 43 3f a8 bc 0c 3e 92 45 37 3d 6c 29 d8 3e
       0.7630216 0.13743842 0.04474408 0.42219102
0003a0 ff 22 34 bf 03 1b 90 3e c9 b1 4f bf 3d 74 0b 3e
       -0.703659 0.28145608 -0.81130654 0.1361856
0003b0 3e 7a 6f 3e 4d 8d 0b bf f4 22 cb 3e 0f 6e 81 3f
       0.23386475 -0.5451248 0.39675105 1.0111712
0003c0 39 69 1f 3e 8a a3 06 bf 46 50 39 3f f8 1d c8 3e
       0.15567483 -0.5259329 0.7238811 0.39085364
0003d0 1e 63 26 3f 1d b1 bd bf 77 dd a2 3e 93 a6 92 bf
       0.6499499 -1.4819676 0.3180959 -1.1457084
0003e0 49 41 69 3f ed 4b 77 3f b3 e4 68 be f7 23 ac 3e
       0.9111524 0.9660023 -0.22743492 0.3362119
0003f0 0a 45 01 be 61 b2 8b 3f 54 a2 c7 be 99 01 cd be
       -0.12623993 1.0913812 -0.38991034 -0.4004028

lstm_cell_2.weight_hh f4 [128, 32]
000000 6f 7a 0a be b0 6b 26 3e 54 33 be 3e 6c ec 90 bd
       -0.13523267 0.16252017 0.37148535 -0.07076344
000010 33 df af 3e 4c b2 07 3f a9 09 81 3e ec 9d 7c 3f
       0.34349975 0.53006434 0.25202683 0.9867847
000020 58 3c 15 3f 6b 25 d5 bd 6d f0 d8 3e 8c 76 e5 3e
       0.582952 -0.104075275 0.4237093 0.44817007
000030 f9 95 39 3f 98 a6 c5 bd 06 ba 22 bf 9f f3 69 be
       0.72494465 -0.09650916 -0.635651 -0.2284684
000040 c4 c2 8d 3e df dc 9b be f5 7e 7f 3e 4f 15 c7 3d
       0.27687657 -0.3044195 0.24950774 0.09720861
000050 85 f9 67 3d fc be ad be 4b 70 42 bf c7 1f 05 3e
       0.056634445 -0.33934772 -0.75952595 0.13000403
000060 d8 be d4 bd 92 d0 80 be 2a 2d f1 3e b3 c9 c9 3d
       -0.10387963 -0.25159127 0.4710477 0.09852924
000070 30 6d 19 3f 5c 1b f2 3e 22 bd 1d bf fe e9 e5 3e
       0.5993223 0.472865 -0.6161672 0.44905084
000080 1f 2c a5 bd 72 3a 6b bd fb 32 2f 3e 74 31 5c be
       -0.08065056 -0.057428785 0.17109291 -0.2150324
000090 a2 ec 73 be b7 49 f6 3d af 6c 33 3f 5f f3 db bd
       -0.23820737 0.12025779 0.70087713 -0.10739779
0000a0 38 87 7b bd 36 17 d7 be 7c f0 a7 be 74 cb d9 3d
       -0.06140825 -0.42009896 -0.32800663 0.10634509
0000b0 21 ff 38 bf ca a8 91 be 2c a1 a2 bd 0d d8 38 bd
       -0.72264296 -0.28449088 -0.07940897 -0.045127917
0000c0 d3 48 f6 bd 77 e8 5d 3e a3 e7 96 3e 2b 38 09 3e
       -0.12025609 0.2167071 0.294736 0.13400333
0000d0 09 b4 71 be 71 b4 17 bf 37 14 1c 3f 8f 53 18 bf
       -0.23603834 -0.59259707 0.60968345 -0.595025
0000e0 35 8a 94 be af c4 a4 3d a4 f1 63 3e 19 34 a2 3e
       -0.29011694 0.08045327 0.22260147 0.31680372
0000f0 e4 39 6f be a9 fb ea 3e cc 79 13 3f ed ac 8c be
       -0.23361927 0.45895126 0.5760772 -0.27475682
000100 b0 52 6f be 19 16 f1 be 6b 08 e3 be ec 20 5c bd
       -0.23371387 -0.47087172 -0.4434236 -0.053742334
000110 72 27 70 be de d7 11 bf 74 a6 71 bd 03 90 63 bc
       -0.23452547 -0.5697001 -0.058996633 -0.013889316
000120 4e d0 ec be 19 d8 01 bf 2b a6 83 bf 0a 4f aa 3e
       -0.46252674 -0.50720364 -1.0285085 0.33263427
000130 05 d8 11 3e c5 5b 0d bf 45 5d eb bd 82 27 e1 3e
       0.14242561 -0.55218154 -0.11492399 0.43975455
000140 a2 51 11 bf 48 f2 f5 3e cb 6a 9a bf b6 fa 14 bf
       -0.56765187 0.48036408 -1.2063841 -0.58195055
000150 8f 77 68 bf ee b6 f6 3e d2 9a a9 bd 2f c0 77 3f
       -0.9080743 0.4818644 -0.08281483 0.96777624
000160 3f 04 81 be db 03 6d be 96 a8 85 3e 5a b3 d3 3e
       -0.25198552 -0.23146002 0.26105183 0.41347772
000170 17 6a b0 be f9 26 de be 5d eb 46 be e4 d6 89 3e
       -0.3445594 -0.4338911 -0.19425721 0.2692176
000180 25 62 b5 3e 2b b4 63 bd 3f 31 a1 3d ca 66 36 3f
       0.3542644 -0.055591743 0.07870721 0.71250594
000190 9f 69 28 be 8b 97 9e 3e 43 96 b0 be 2f be a3 3e
       -0.16446541 0.30974993 -0.3448964 0.31981036
0001a0 7b db c4 3e cd ba ec 3e b0 5b 9a 3e fa 99 31 3f
       0.384487 0.46236268 0.30148077 0.69375575
0001b0 29 b3 20 3e fa 56 23 bf 2c 15 0d 3d a0 b5 b4 bc
       0.15693344 -0.6380459 0.03444402 -0.022059262
0001c0 8d 46 89 be 0d 78 91 be 46 2c 56 3e 2d 8c f3 3d
       -0.26811638 -0.28411904 0.20915326 0.11891971
0001d0 e1 0e 8d 3e 95 80 80 3e b9 12 13 bf 8f e7 ad bc
       0.27550414 0.250981 -0.57450444 -0.02122858
0001e0 2c 0e 7a be 20 eb 02 be a1 f8 91 3c 67 4f bf 3e
       -0.24419469 -0.12785006 0.01781875 0.37365267
0001f0 73 b4 65 3f e4 bc 06 3f af 03 75 3e e6 da 67 3d
       0.8972847 0.52631974 0.23927186 0.056605242
000200 40 ad 88 3e d5 9c 11 bf 48 5e 59 bd e5 2c f6 bc
       0.2669468 -0.5687993 -0.05306843 -0.030050704
000210 77 d3 2f 3f a2 73 86 be 7e 66 6f be df ce a2 3e
       0.68682045 -0.26260096 -0.23378941 0.31798455
000220 fd c2 4e 3f 45 50 0b 3e 7f 52 41 bd bf 55 a2 3d
       0.8076628 0.13604839 -0.047197815 0.07926511
000230 dc a3 21 bf b0 a8 4d 3e f2 3a 04 bf 90 5b f2 bd
       -0.63140655 0.2008388 -0.51652443 -0.118338704
000240 7c 8d 70 be 7a b7 88 3d 5d b9 1f bf 68 a3 10 3e
       -0.23491472 0.066756204 -0.62392217 0.14124835
000250 5b 56 00 bf 80 1a 0c 3f d2 19 46 bf 96 29 4b bd
       -0.5013177 0.54727936 -0.7738315 -0.049600206
000260 a2 30 30 3e 5d 04 e2 bd 67 6a 73 3e 4f c7 32 be
       0.17206052 -0.110359885 0.23771058 -0.17458843
000270 82 32 39 3d 8e 96 9a bd d2 ca f7 3d 2d 32 8d be
       0.045214184 -0.07548247 0.12099232 -0.27577344
000280 a4 84 42 be 64 9d ff 3e 1e 17 77 bf 44 62 56 be
       -0.18995911 0.49924767 -0.9651965 -0.20935923
000290 44 e5 1b be 24 71 c0 be dd 06 00 3e 89 83 00 3f
       -0.15224177 -0.3758632 0.12502618 0.50200707
0002a0 e3 2f 7e bd 7a d8 73 bd 87 6e 7a 3e 9b 46 4b bf
       -0.062057387 -0.05953262 0.24456225 -0.7940461
0002b0 09 37 57 bf fe 96 79 be f7 82 9f be e7 a8 d5 3e
       -0.8406835 -0.24374005 -0.31154606 0.41730425
0002c0 18 e8 bd be 5a 53 e3 bd 9f 4e 75 be 33 11 b6 3d
       -0.37091136 -0.110998824 -0.23955773 0.08889999
0002d0 c4 56 ea be 81 cd 2c be c6 fa 9c 3e db e4 f5 3e
       -0.45769322 -0.16875269 0.30660075 0.48026165
0002e0 1c fe 38 be 9e 6f e2 3a d6 2c 05 3f 82 5a b3 3d
       -0.18065685 0.0017275696 0.5202154 0.08757497
0002f0 fc 16 f3 bb ad 7a af be 89 87 10 3f e5 9e 64 3e
       -0.0074185114 -0.34273282 0.5645681 0.22326238
000300 46 f6 ea 3e 9a b8 c2 3e 98 6b a6 3d dd 0a 2a 3f
       0.45891017 0.38031465 0.08125991 0.66422826
000310 b1 58 7f 3e f2 b0 0b 3f 9f 5a 6a bf 37 6a b6 3e
       0.24936177 0.5456687 -0.91544527 0.3562791
000320 5b 8c 03 3c 83 f5 f1 bd 4d 03 b4 bd 79 80 90 be
       0.008029069 -0.11814406 -0.08789692 -0.28223017
000330 50 66 1b bd d1 19 1b 3d fe 6f f6 be bd 86 4b be
       -0.03793937 0.037866417 -0.48132318 -0.19875617
000340 90 e0 c4 3c 98 04 be be b8 fa 98 be c4 68 ff be
       0.024032861 -0.3711288 -0.29878783 -0.49884617
000350 5d dd 6b bf d0 c7 60 3e aa c2 7a 3c 8e 3d ba 3e
       -0.9213465 0.21951222 0.015305201 0.36375087
000360 a0 e8 e9 be bd da e3 3d bd eb 22 bf ea 9f 83 3b
       -0.4568529 0.111257054 -0.6364096 0.004016866
000370 15 7e 06 3f 75 de 38 bf 01 2e fb be 15 0b 6d 3e
       0.52536136 -0.7221444 -0.49058536 0.23148759
000380 9c 04 0c bf e7 d8 f7 3d 86 96 1e 3e 86 c6 df 3e
       -0.54694533 0.12101918 0.15487108 0.4370615
000390 aa bf 08 bf c5 77 b8 be 1b 40 97 be 47 ca 03 3f
       -0.53417456 -0.36028877 -0.29541096 0.51480526
0003a0 eb d7 bd 3e cf f8 62 bf 45 08 ca be 07 9c bc 3e
       0.37078795 -0.886609 -0.39459434 0.3683779
0003b0 63 89 65 3e c9 e7 7c 3e d9 7c 7e be ab 31 b4 3c
       0.2241569 0.24697794 -0.24852313 0.02199634
0003c0 d2 05 03 bf 9f 27 a9 be d4 98 04 3e 5e d1 9b be
       -0.51180756 -0.3303804 0.12948924 -0.30433172
0003d0 84 28 d0 3d 9c ef b5 3d 24 50 4c 3e 0f 4b b1 bd
       0.10163978 0.088835925 0.19952446 -0.086568944
0003e0 8e ed 14 3c e3 2e 27 bd 7c 4d 1b 3f da 23 bb bd
       0.009089841 -0.0408162 0.60665107 -0.091376975
0003f0 27 1f 4c bd 4a f7 3b 3e e4 42 e5 3e 5e 82 c2 bd
       -0.049834397 0.18356052 0.44777596 -0.09497522

lstm_cell_2.bias_ih f4 [128]
000000 8f db c5 3f 3d bd 87 3f d6 1d c5 3f 2a 58 ec 3f
       1.5457629 1.0604626 1.539973 1.8464406
000010 77 dd c7 3f 50 3e f8 3f 31 44 b8 3f 16 f7 ad 3f
       1.5614461 1.9394016 1.439581 1.359103
000020 98 49 89 3f 4f 13 d4 3f 7d 8c 9f 3f 51 78 b1 3f
       1.0725584 1.6568393 1.2464749 1.3864843
000030 9e 2e 7a 3f 46 58 af 3f 78 51 b3 3f e6 58 63 3f
       0.9772738 1.3698814 1.4009237 0.88807523
000040 29 e9 6d 3f 66 28 f1 3f 09 96 7e 3f 75 2e 80 3f
       0.929339 1.8840454 0.99447685 1.0014178
000050 4a f8 9b 3f 8f b7 8d 3f eb e1 28 3f 3c a6 91 3f
       1.2185147 1.1071643 0.65969723 1.1378856
000060 07 bc c4 3f 64 22 d2 3f e4 ac 14 3f 77 85 cb 3f
       1.5369881 1.6416745 0.5807631 1.5900105
000070 da 12 bb 3f 8a 02 91 3f 8f 8b 6c 3f bd b4 43 3f
       1.4615128 1.13289 0.9240045 0.7644766
000080 42 17 41 bf 29 e7 ce be 0a 67 3a bf 15 24 ea be
       -0.75426114 -0.40410736 -0.72813475 -0.45730653
000090 c4 9a 5b bf aa 07 bc be 07 9e 78 bf 0a 80 c2 be
       -0.8578303 -0.36724597 -0.9711613 -0.3798831
0000a0 45 82 dc be 28 61 3a bf 81 1d 55 bf 3e 77 e5 be
       -0.43068138 -0.728045 -0.83248144 -0.44817537
0000b0 93 69 31 bf 84 26 2a bf 0a 10 52 bf 70 4d e5 be
       -0.6930172 -0.6646502 -0.82055724 -0.44785643
0000c0 11 8a a1 bf f1 44 91 bf 82 e9 61 bf 61 a9 96 bf
       -1.262026 -1.1349164 -0.8824693 -1.177044
0000d0 25 98 87 bf 93 24 2b bf 20 60 3b bf 05 fe 5f bf
       -1.0593306 -0.6685268 -0.7319355 -0.8749698
0000e0 45 22 35 bf 12 27 8c bf 16 8d 05 bf 05 9d 5e bf
       -0.70755416 -1.0949423 -0.52168405 -0.8695834
0000f0 b9 9b 58 bf ee c1 08 bf ff f5 c2 be f7 23 45 bf
       -0.84612614 -0.53420913 -0.38078305 -0.77008003
000100 0a 73 0e 3d f0 46 23 be b4 9b 01 bb 5b d3 ed bb
       0.03477768 -0.1594503 -0.0019776644 -0.0072578616
000110 f4 86 31 3a f3 f9 3d 3e a9 2f 23 3e 6c 49 87 bd
       0.0006772124 0.1855238 0.1593615 -0.06605801
000120 7e 89 90 be 50 8c a8 be b9 65 60 3e 69 62 7d 3c
       -0.28229898 -0.3291955 0.21913804 0.015465357
000130 23 2b c1 3d 95 8c a2 be 66 4f ef 3c b6 0b 46 3e
       0.09432056 -0.3174788 0.029212665 0.19340405
000140 b9 6f a7 3e 17 b8 1d be 5c 56 1e 3c f7 82 9d bd
       0.32702425 -0.15402256 0.009664144 -0.07690995
000150 00 29 04 3d 64 3a d4 3d b4 76 d7 be f7 5c 42 bd
       0.032265663 0.103627 -0.4208275 -0.04745194
000160 ab de 4b 3e 90 00 d4 3d c1 21 5b 3e 13 84 09 bd
       0.1990916 0.1035167 0.21399595 -0.03357322
000170 4d 61 be 3c 7b c9 00 3d af 2c 23 3d ec f4 10 3f
       0.023239756 0.031442147 0.039837535 0.5662372
000180 78 0c ae 3f e7 14 c3 3f ca 73 be 3f 1c 8e a4 3f
       1.3597555 1.5240754 1.4879086 1.2855868
000190 90 c2 d4 3f ec f0 b6 3f 02 a8 a4 3f 03 9c 91 3f
       1.6621876 1.4292274 1.2863772 1.1375736
0001a0 7b f6 ae 3f e3 ec 9b 3f eb 9a d0 3f 3a 8e bf 3f
       1.366897 1.2181667 1.6297277 1.4965279
0001b0 64 0a 7c 3f 84 a4 50 3f 06 1f b8 3f 94 08 66 3f
       0.98453355 0.8150103 1.4384468 0.8985684
0001c0 db 45 73 3f 4c bb c8 3f b9 54 b3 3f 0a 43 90 3f
       0.95028466 1.5682158 1.401023 1.1270459
0001d0 5a 10 bf 3f 65 ff 88 3f f4 45 9a 3f e4 4c c1 3f
       1.4926865 1.070294 1.2052598 1.510159
0001e0 18 43 70 3f fd 9f e4 3f e5 c2 59 3f f5 5f e9 3f
       0.93852377 1.7861325 0.8506301 1.8232409
0001f0 5c a8 e6 3f d7 ef ab 3f a4 45 6f 3f 9c da 1a 3f
       1.8020129 1.3432568 0.9346564 0.6048982

lstm_cell_2.bias_hh f4 [128]
000000 e0 ab d8 3f 57 c3 8f 3f d0 96 ba 3f 54 6e c4 3f
       1.6927452 1.1231488 1.4577274 1.534617
000010 93 f8 ce 3f da 7a ff 3f 4b 97 c2 3f 23 5e 86 3f
       1.6169609 1.9959366 1.5202421 1.0497478
000020 1e 96 57 3f 1b 4f c2 3f 7d 46 b8 3f 61 36 af 3f
       0.84213436 1.5180391 1.4396511 1.368847
000030 54 3b 70 3f d2 51 99 3f 95 75 a5 3f de 5c 74 3f
       0.9384053 1.1978095 1.2926508 0.95454204
000040 08 a3 91 3f 28 6a d7 3f 58 f5 83 3f de 5b 92 3f
       1.1377878 1.6829271 1.0309248 1.1434286
000050 72 85 9d 3f 82 ec 62 3f 6f bb 3e 3f c9 e6 83 3f
       1.2306349 0.8864213 0.7450475 1.0304805
000060 97 99 a3 3f 4c b2 db 3f 36 8c 3a 3f 45 39 ce 3f
       1.2781247 1.7163787 0.72870195 1.6111227
000070 16 46 a9 3f a4 a4 8c 3f 3f 0a 4a 3f e5 00 76 3f
       1.3224514 1.0987744 0.78921884 0.96095115
000080 9a b6 44 bf a5 12 c7 be 29 dc 37 bf c9 dc f4 be
       -0.7684113 -0.38881412 -0.7182031 -0.47824696
000090 b4 c5 2e bf 5c c9 cf be 78 8a 84 bf b4 27 26 bf
       -0.6827042 -0.40583313 -1.0354757 -0.6490433
0000a0 83 56 21 bf a8 ab 10 bf 37 68 48 bf 31 5d 43 bf
       -0.6302263 -0.56511927 -0.7828402 -0.76314074
0000b0 e3 a0 4d bf c2 1d 13 bf b9 db 3a bf ca 7e d6 be
       -0.8032362 -0.5746728 -0.7299152 -0.41893607
0000c0 ed f6 98 bf f0 c5 69 bf 8a 5d 87 bf 2e 2a 80 bf
       -1.1950356 -0.91317654 -1.0575421 -1.0012872
0000d0 11 e1 4c bf 4e 2f ed be 18 a9 36 bf a4 9d 82 bf
       -0.80030924 -0.46325153 -0.71351767 -1.0204358
0000e0 e5 fa d0 be a5 19 83 bf 31 f7 fe be 03 de 3d bf
       -0.40816417 -1.0242201 -0.49797967 -0.7416689
0000f0 31 eb 5b bf bd 23 43 bf 9d 50 e2 be 25 20 00 bf
       -0.8590575 -0.7622641 -0.44202128 -0.5004905
000100 b4 2b d0 3d 92 17 44 3d 1e 3a de 3b ac 8c 99 b9
       0.10164586 0.04787404 0.0067818305 -0.00029287243
000110 a3 f8 2d be 6e 39 27 bd 6d af 97 3e 2e 00 eb bd
       -0.16989379 -0.040826254 0.29626027 -0.11474644
000120 45 94 4b be b2 9d 11 be 13 af 00 3e 92 67 1f bd
       -0.19880779 -0.14220312 0.12566786 -0.03891713
000130 df 64 85 bb e5 e9 8a be bd 34 b2 bd 9a 0c eb 3d
       -0.0040708627 -0.27131572 -0.08701465 0.11477013
000140 5a 3d 5b 3d 53 f3 7a be 3d ca 21 be ed 5b 60 bd
       0.053525306 -0.24506883 -0.15799804 -0.054775167
000150 6e 84 59 3e f5 af da 3d 15 95 08 bf 80 d2 15 bd
       0.21241924 0.106780924 -0.5335248 -0.0365777
000160 ad d9 58 3e b3 41 b3 bb c1 e5 db 3d de 20 59 be
       0.21176787 -0.0054704784 0.107371815 -0.21203944
000170 e2 cd 53 3e f0 07 fd 3d 4c 87 91 3e e3 e7 8d 3e
       0.20684007 0.123550296 0.28423536 0.27715978
000180 7c 4b af 3f 78 87 c1 3f 2e 8c c4 3f 79 73 92 3f
       1.3694911 1.5119467 1.535528 1.144149
000190 c5 5a d3 3f 74 a5 b6 3f 87 cd a8 3f 9f 58 9b 3f
       1.6512076 1.4269242 1.3187722 1.213642
0001a0 fd b3 b4 3f 51 a4 93 3f 17 b5 b8 3f 1a a5 b5 3f
       1.4117428 1.153452 1.4430264 1.419101
0001b0 af f8 8b 3f d3 80 82 3f b4 ed af 3f 89 b2 57 3f
       1.0935267 1.0195564 1.3744416 0.842568
0001c0 1a 48 7c 3f 9c e4 ec 3f f9 2f b6 3f 6d 6d 7d 3f
       0.9854752 1.8507266 1.423339 0.98995095
0001d0 68 e7 da 3f b4 52 86 3f f9 9d a0 3f da e3 d5 3f
       1.710187 1.0493989 1.254821 1.671016
0001e0 d9 b5 7b 3f 22 da e7 3f a9 82 7b 3f ab 4e ed 3f
       0.9832435 1.8113444 0.98246247 1.8539633
0001f0 4e 84 e2 3f 08 1a 97 3f c2 ff 6f 3f 4b 6a 39 3f
       1.7696626 1.1804819 0.9374963 0.72427815
