weights/textGenerator_words_2.pt (torch_old, 354690 bytes, 13 tensors)

embedding.weight f4 [713, 32]
00000000: 0000 0000 0000 0000 0000 0000 0000 0000
00000010: 0000 0000 0000 0000 0000 0000 0000 0000
00000020: 0000 0000 0000 0000 0000 0000 0000 0000
00000030: 0000 0000 0000 0000 0000 0000 0000 0000
00000040: 0000 0000 0000 0000 0000 0000 0000 0000
00000050: 0000 0000 0000 0000 0000 0000 0000 0000
00000060: 0000 0000 0000 0000 0000 0000 0000 0000
00000070: 0000 0000 0000 0000 0000 0000 0000 0000
00000080: 0e4a 0340 5de6 96bf c301 b5bf 5dd6 a43d
00000090: 53a0 2abe 7e8c 123f 99be ae3f 07f4 353f
000000a0: 66ae dbbf abf0 eb3d bd2f 2abf 48f9 8abf
000000b0: 1ab2 2bc0 7f18 d0bf 9ab3 3f40 2b5e 29be
000000c0: e9eb ba3f 732c 123f 3bc0 b53f 3361 823f
000000d0: 9c64 edbe a360 5abf c172 1ac0 8aaa 8e3f
000000e0: 541d 06bf 2690 543f 632b 09c0 a59a 5fbf
000000f0: 1288 cbbf 2ac7 a2bf 105d 6c3f b894 0cbf
00000100: 47d1 0fbe 0b10 3abf 20b4 23bf 2206 1ac0
00000110: df36 debe 24d6 ec3e 3c7a 953e b817 c53e
00000120: e398 ff3e 3ca6 953d ada6 83be 8b1c ee3e
00000130: 4ed0 853f 0859 0a3f 4e0d b6be 6b2b 933f
00000140: 0111 343f def4 31bf 5e8c 5abe f09b 96bf
00000150: 79a1 1dbf 3d7f 1d3e d1ba 89be 10fb bcbe
00000160: 5299 2d3f adaa 6dbe e4fa 2bbf 636e 82bf
00000170: 815d c7bf 956b 1c3f 20eb 803e 9ea7 0a40
00000180: cf01 15bf acd5 753f b81f 00c0 935a f63e
00000190: 63b0 b23e c82d 08bf 5c94 0b3f 16d3 9bbf
000001a0: 13b2 193f aa97 a53d 9966 b83f 06ab ee3e
000001b0: dd62 19c0 77e0 43c0 ddc2 943f af81 883f
000001c0: df0f c23e 2efe f0bd ce87 153f b6bb 5e3c
000001d0: ae42 43bd ebdb eebf f4b5 9fbd b9c9 e33f
000001e0: 7743 0cbe 5909 85bf 1479 ef3f 54b0 15c0
000001f0: 45b7 e33f 07c7 9d3f 8c6e babf 9672 c1bf
00000200: 9f11 2140 1573 08c0 fa1c 32c0 d081 9d3f
00000210: 3b39 a5bf 185f 513f ee07 2dbf f6d5 b73c
00000220: a1c1 20bf 8ad7 afbe b3f7 4c3f f763 06c0
00000230: fbd0 e23f 0cd0 93bf a38f 613f 1473 8abf
00000240: d155 5d3e 4c04 97bf 6419 cebf a42f 82c0
00000250: 990e df3f 8616 a93f c449 4bbf 6d09 893f
00000260: 1606 33be 1b16 3fbf 1c36 e33e 380c 01bf
00000270: 495b 53bf bea4 49bf 6c73 c7bf 813e e23f
00000280: b81c de3e 5255 bf3f 4c32 77c0 4881 06c0
00000290: 75c2 3ac0 fb8d 52bf f856 c93f 1ba2 be3d
000002a0: 20bf 8bbe 0baa 5abe a907 6cbe 6e08 33c0
000002b0: ecc8 653e 3348 fd3e eb63 eb3e 2055 cd3d
000002c0: 80d7 9c3e 91ba 1dbf 0e75 8cbf 5fcf 233f
000002d0: bf73 bcbf 0ee7 18c0 2883 5c3f e09c 1840
000002e0: 3a38 ee3f 4c4a f5bf 7fa0 b33f dda5 1ac0
000002f0: 42b2 953d 8bc1 d83f f3a3 abbf 00f9 c53f
00000300: 3a25 ddbe 3375 1f3f cf34 3a3f f95a 5ebf
00000310: 2b1a ac3e 8e13 6fbf 63ac a23b 61ee 8e3f
00000320: 091f c53e 18aa 52bf e225 6b3f 4e20 5e3e
00000330: 11ef ca3c 8d12 bfbc fdbd dfbe 0951 a8bf
00000340: 193c e9bf 2676 723f bf95 c2bf 30bf 6abf
00000350: f40c b9bf cd1d 573f b2ad 88bc afd9 2bc0
00000360: 3784 d8bd 5158 583e 095d b73f 7cdb b03f
00000370: 336c e13e eee4 523f 213a 0640 3bea 01bf
00000380: 255d 57be 0825 50bd da5e 2abe 3995 2cbf
00000390: a48d 433e b211 4bbf e7fa 983f 7fb5 adbf
000003a0: 67cf 9a3e db3f 97bf 1e4f 36bf c536 13bf
000003b0: b43a a2bf 6a28 9b3e 691d 2240 0e8e 383f
000003c0: f60c 1d40 e3bd 733f b6dd bb3e 5da1 dc3f
000003d0: 39a4 14bf 7506 aebf 5be0 90bf bf2f 3b3f
000003e0: a1d8 503f aeb6 abbf 78bd 92bf f975 07be
000003f0: 2bff 533f 61a8 2fbb e657 95bd e79b f2bf
0.0 0.0 0.0 0.0 0.0 0.0 0.0 0.0
0.0 0.0 0.0 0.0 0.0 0.0 0.0 0.0
0.0 0.0 0.0 0.0 0.0 0.0 0.0 0.0
0.0 0.0 0.0 0.0 0.0 0.0 0.0 0.0
2.051395 -1.1789051 -1.4141163 0.08048699 -0.16662721 0.57245624 1.3651916 0.7107548
-1.7162597 0.11520513 -0.6647909 -1.0857325 -2.6827455 -1.6257476 2.995337 -0.16539828
1.4603244 0.57099074 1.4199289 1.0185913 -0.4636582 -0.85303706 -2.413254 1.1145794
-0.523885 0.83032453 -2.143273 -0.87345344 -1.59009 -1.271703 0.923295 -0.54914427
-0.14044677 -0.7268073 -0.63946724 -2.4066243 -0.43401238 0.46257126 0.2919482 0.38494658
0.4992133 0.07307097 -0.257131 0.46506152 1.0454195 0.540421 -0.35557026 1.1497625
0.70338446 -0.6951426 -0.21342608 -1.1766338 -0.6157451 0.15380569 -0.26900342 -0.36910295
0.67812073 -0.23209639 -0.67179704 -1.0189937 -1.557541 0.6110166 0.25179386 2.1664805
-0.58205885 0.9602916 -2.001936 0.48115978 0.34900197 -0.53194857 0.54523253 -1.2173793
0.60037345 0.08085568 1.440631 0.46614856 -2.3966591 -3.0605752 1.1621968 1.0664576
0.37902734 -0.11767231 0.58410347 0.013594558 -0.047671013 -1.8660864 -0.07798377 1.7795936
-0.13697611 -1.0393478 1.8708825 -2.3388872 1.7790304 1.2326363 -1.4564986 -1.5113094
2.5167005 -2.132024 -2.7830186 1.2305241 -1.290809 0.81785727 -0.67590225 0.022440892
-0.62795454 -0.3434413 0.8006546 -2.0998514 1.7720026 -1.1547866 0.881098 -1.0816369
0.21614768 -1.1798186 -1.6101499 -4.0683155 1.742633 1.3209999 -0.7940943 1.0706002
-0.1748279 -0.74643105 0.4437722 -0.5040927 -0.82561165 -0.78767 -1.5582099 1.7675325
0.43381286 1.4947913 -3.8624449 -2.1016407 -2.9181187 -0.82247895 1.5729666 0.09308263
-0.27294254 -0.21353929 -0.23049797 -2.7973895 0.22439927 0.49469146 0.4597467 0.10026002
0.30633163 -0.616128 -1.0973222 0.639883 -1.4722823 -2.3891025 0.8613763 2.384575
1.8610909 -1.9163299 1.4033355 -2.4163735 0.073093906 1.6934065 -1.3409408 1.5466614
-0.43192464 0.62288207 0.7273683 -0.86857563 0.33613715 -0.93389213 0.0049643978 1.1166497
0.3850024 -0.8229079 0.9185468 0.21692011 0.024772199 -0.023324275 -0.43699637 -1.314973
-1.8221465 0.9471153 -1.5201949 -0.9169798 -1.4457078 0.8402985 -0.016684387 -2.6851614
-0.10572093 0.2112744 1.4325267 1.3816981 0.44027862 0.8238057 2.097298 -0.5074803
-0.21031626 -0.050816566 -0.16637745 -0.67415196 0.19097 -0.79323876 1.1951569 -1.3571013
0.3023636 -1.1816362 -0.71214473 -0.57505447 -1.2674165 0.3030427 2.533045 0.7209176
2.453916 0.9521162 0.3669259 1.7236744 -0.58063084 -1.359572 -1.1318468 0.7311973
0.8158055 -1.3415124 -1.1464071 -0.13228597 0.8281123 -0.0026803243 -0.07292156 -1.8953828

lstm_cell_1.weight_ih f4 [128, 32]
00000000: 8034 36bf 08c1 9fbe 6da7 293e 8a66 1a3f
00000010: ac2a bcbc c465 84bf 244d 2640 7a9f c4bd
00000020: 1750 75be b0a5 4c3f 4152 1fbf 5a24 193f
00000030: aef3 6ebe 44d4 0ebf 4150 343f f46d 1c3e
00000040: 879f 013f 2c07 adbf e70f 2bbf a5c2 95bf
00000050: 6976 253d c94c f4bd 20c8 fabe e9dc 693f
00000060: 56e4 13be a79f 443f b0d2 2cbf 7441 afbf
00000070: adb5 763f e258 f43e cf97 153f b2bd c73f
00000080: 6160 1440 a194 b6be 82b3 efbd 3295 9ebd
00000090: b670 063e 36f1 7b3e af8b 413f 3988 33bd
000000a0: 5ddb a3be b054 1f3f 6ba9 5ebe 3b6e c6bd
000000b0: e1af 2c3f db1a 37bb 73be db3e 28ce cabf
000000c0: 40c4 313f 6cb4 a4be 369a 8abb 84f2 1c40
000000d0: 4f1b dfbe ce97 6a3f d5a3 9f3e 358f a1be
000000e0: c620 813d 88c3 0e3f a16d a8bd 69ce d7bd
000000f0: 7300 8cbf 9855 db3e 99c6 0abf b6a3 e73e
00000100: d0fe 573f 7c21 6c3f aa87 97bf 6971 c43e
00000110: c227 27bf 8c5a 973f 4efc c0bd 3634 08bd
00000120: 6e34 9abf cf7b a3bf 670a 7fbf ce2a d8be
00000130: b645 283f b15d cebe 85b0 5a3e 2e68 343f
00000140: 870b 62be 625d d5bd 7192 d83e 182f 7bbf
00000150: ff07 a93e cb50 91bf 94eb 8cbd afc4 8fbf
00000160: 1c9c 473e 42fc adbe d7b6 c93e 67f9 653f
00000170: 656d 0dbf a146 54be 4200 80be d136 16bf
00000180: aa05 e73f 41a5 613f 0d81 0b3e 8e38 21bf
00000190: 5f6d 1fbf 91ba 62bf a8b7 4f3e ae10 0cbb
000001a0: 3cdf 0ebf f752 de3e adcc 243f 3979 9f3f
000001b0: 89ac 05bf 7d75 a2bf 5dce ea3e 7e20 51bb
000001c0: 25fd b43d 680f 1fbf fac4 993f 8842 b63d
000001d0: a64f 0fbf 023f 9cbf 6ba2 1ebf 42c2 b13e
000001e0: 5480 87bf e740 093f 7ba5 f8be 63f6 243e
000001f0: 85d4 1ebf 5234 56be 2d43 113f 355a b23f
00000200: dbdb 523f eabb 1d3f b2c3 1a3e d97d 2abd
00000210: 70e2 0bbe 3beb 533f 5565 d83e 6d7a 4dbe
00000220: 17ad 05c0 4624 2cbe 008f c3bc 9604 1ebf
00000230: c993 cd3d 9258 d5be 1d25 e3be 02e0 68be
00000240: 2321 e9be df69 a9be a3fb 483f bea2 113f
00000250: 5b60 953f 7ee7 29bf 8e45 04bf 9b53 83bf
00000260: 32e0 98be 9ba6 9bbf c1b5 aabf 08d5 b3be
00000270: 15a4 58bf 35a1 94bc df0b fe3e 2f4a 813f
00000280: 3267 55bf 7734 4d3f e7ec 02bf a3ad cd3f
00000290: d30f 773e d240 f33e bec9 ed3f 4492 423f
000002a0: ed3c c8be 3d11 093e 9263 7abf ba11 0d3f
000002b0: 8e70 a9bf 2ba7 c3be 0f57 dd3e 5560 893e
000002c0: 2998 10bf d608 3c3f 94b1 2c3f e0d3 56bf
000002d0: 9e1e 3c3f 36a0 da3e 8a48 8a3e b580 5c3e
000002e0: 8f15 1bbe 8008 4dbf d787 8bbf 1414 9fbe
000002f0: 91e9 9e3e 9fb1 773e 34dc 03bf cd8a 3abf
00000300: 6190 973f d516 5e3e b045 be3e 89ad 2b3f
00000310: b34c ba3f be7c 1b3e e4eb bfbf 05f3 763f
00000320: d1ec ccbd 8c8f 313f 6762 333f 4021 e33e
00000330: 723f 14bf f156 e2bf a4ee 91bf d630 b7be
00000340: ec5f 6c3e c6d6 b2bf 4a25 05be 5f0c 34bf
00000350: b7c0 043f 61af 2abf 34e2 18bf a78d 3f3f
00000360: e47e de3e 6ba6 aebf 8808 793f f1c4 90bf
00000370: c01e 2dbe 26e2 05bf 486c d7be 889b b63e
00000380: dbdf d93e 8afb cb3e b20c 87bf dccc 753e
00000390: 8dc3 51be 0115 e6be b540 06bf a9df 54bf
000003a0: 504b b9bf 502a a4be d067 79bf 3b20 333f
000003b0: 3dd7 0cbf 251e 8dbe 0378 53be 8c4b 9bbf
000003c0: 10b3 01be 5f21 a13d 920a 5c3f 0ba2 03be
000003d0: a14c 843f dcac 203f 6fd4 97bf 11e8 e4be
000003e0: ff08 59bf c82e 4bbe 5adb 2bbe 70ef 04bf
000003f0: b10e 993f 1190 cdbe 355f 08bf 605d 85bd
-0.7117386 -0.3120196 0.16567774 0.6031271 -0.022969566 -1.0343556 2.5984583 -0.0960073
-0.23956333 0.7994032 -0.62234885 0.59821093 -0.23335144 -0.5579264 0.7043496 0.15276319
0.50634044 -1.3517814 -0.6682114 -1.1700026 0.040396128 -0.11928708 -0.48980808 0.9135271
-0.14442572 0.7680611 -0.67508984 -1.369185 0.96370965 0.47724062 0.58434767 1.5604765
2.3183825 -0.3566027 -0.1170416 -0.077433005 0.13128933 0.24603733 0.75603765 -0.043831084
-0.32003298 0.622386 -0.21744315 -0.096889935 0.6745587 -0.002793959 0.4291874 -1.5844164
0.6944008 -0.321689 -0.004229809 2.452302 -0.43575522 0.91637886 0.3117968 -0.3155457
0.06305079 0.55767107 -0.08224035 -0.105374165 -1.0937637 0.4283874 -0.54209286 0.4524209
0.8437319 0.92238593 -1.1838276 0.38367775 -0.6529504 1.1824508 -0.09423123 -0.033252917
-1.204725 -1.2772158 -0.9962525 -0.42220157 0.6573137 -0.40305856 0.213564 0.70471466
-0.2207471 -0.10418202 0.42299226 -0.98118734 0.33013913 -1.1352781 -0.068808705 -1.1231898
0.19493145 -0.3398152 0.39397308 0.8983368 -0.5524505 -0.20730068 -0.25000197 -0.58677393
1.8048604 0.8814278 0.13623448 -0.6297692 -0.6227626 -0.8856593 0.20284903 -0.0021372247
-0.5580938 0.43422672 0.6437481 1.2458869 -0.5221639 -1.2692105 0.45860568 -0.0031910236
0.08837346 -0.62132883 1.2013237 0.088994086 -0.5598091 -1.2206728 -0.6196658 0.3471852
-1.0586038 0.5361466 -0.48563752 0.16109614 -0.6204303 -0.20918396 0.5674313 1.3933779
0.8236672 0.6161486 0.15113714 -0.041623924 -0.13660598 0.8278081 0.4226481 -0.20066233
-2.0886896 -0.16810712 -0.023871899 -0.6172575 0.100379534 -0.41669136 -0.44364253 -0.22741702
-0.45533094 -0.33088586 0.7850897 0.5688895 1.167003 -0.66368854 -0.5166863 -1.0259889
-0.29858547 -1.2160219 -1.3336717 -0.35123467 -0.8462537 -0.018143276 0.49618432 1.0100764
-0.8336059 0.8015818 -0.51142734 1.6068615 0.2412713 0.4751039 1.8577192 0.76004434
-0.39108983 0.13385482 -0.9780818 0.55105174 -1.3237474 -0.38213477 0.43230483 0.26831308
-0.5648218 0.7345098 0.6745846 -0.83917046 0.7348422 0.42700356 0.27008468 0.21533473
-0.15144943 -0.80091095 -1.090083 -0.31070006 0.31037572 0.24188851 -0.5150788 -0.72868043
1.1840936 0.21688397 0.37162542 0.6706167 1.4554657 0.15184304 -1.4993863 0.9646457
-0.10006107 0.6935966 0.70072025 0.44361305 -0.5790931 -1.7682782 -1.1400952 -0.35779446
0.23083466 -1.3971794 -0.13002506 -0.70331377 0.5185656 -0.66673857 -0.5972016 0.7482552
0.43456185 -1.3644537 0.9727864 -1.1310102 -0.16906261 -0.522982 -0.420748 0.35665536
0.425536 0.39840347 -1.0550749 0.24003929 -0.20484753 -0.449379 -0.52442485 -0.8315378
-1.4476109 -0.32063532 -0.9742403 0.69971055 -0.5501593 -0.2756206 -0.2065125 -1.213243
-0.12665963 0.07867693 0.8595363 -0.12854783 1.0335885 0.6276376 -1.1861705 -0.44708303
-0.8477935 -0.19842064 -0.16782895 -0.5192785 1.1957608 -0.40148976 -0.53270274 -0.065119505

lstm_cell_1.weight_hh f4 [128, 32]
00000000: fe1f e6be 2374 36bf 8270 d73e b437 78bf
00000010: 8d6a 853f bc92 be3f 1b2f 43bf bbf1 0a3e
00000020: 903d d13f 450a 0640 4047 b73f b396 2fbc
00000030: 6a52 b73f 74b7 9e3f 0200 103f 07c2 a8be
00000040: 81ee 3cbe d757 5fbf ffef 76be 6677 993f
00000050: 6fbb 533f 1d4d 083f d018 40bf 923b 0d3f
00000060: 7acc 0c3f 4114 2c3f c800 803e 63ad ee3e
00000070: 8d86 e7be 4d81 c6bf 53d0 8c3f 9159 4abf
00000080: 1aff c13d 809e 953e fcb6 8f3f aa8c ef3e
00000090: 5901 ac3f f681 d73e cc9d 543f f1b7 233f
000000a0: ac1a b93e 0a08 953e 2adb 9c3e 14f8 cdbd
000000b0: 85e2 3dbe a1dd e73e 4d57 e03e 6e46 7d3f
000000c0: 70de aabe 5c16 963e 793a 88bd f4f2 2a3f
000000d0: a553 333f 1a17 9c3f d76f abbf 1757 aa3f
000000e0: 21d9 433f de81 e1be 44fe 2fbf 6b79 d23f
000000f0: 8e21 0d3f 233e ffbe e813 d23f 3f37 9d3e
00000100: 8a58 7b3d 5d97 5abf 0576 993e f481 46be
00000110: 4760 133f 7b9c 833f 58ad 29bf d0f9 a1be
00000120: eb9f 8b3f 69c6 083e beda be3f 60d3 7e3e
00000130: 2455 52bd f255 72bb fb17 0540 ca9a d33f
00000140: 4bbc 2cbf a121 adbf 3d9f 9c3e c0b0 3ebe
00000150: 9e87 bebe 14d3 e1bd 27e5 f9be eb77 fa3f
00000160: 1ee2 693d 5f18 083f cf06 91bf 81b9 5a3f
00000170: 5bae 3f3f 0ab5 12be 9804 803e 56d7 fcbd
00000180: 4dfd eabd 1f4a a7bf 334d 09be 3331 76bf
00000190: abbf 7d3e fcca 953b 91bf 093f a911 d63e
000001a0: d045 823f 9345 083f d173 343e 0a7d 883d
000001b0: 2780 82bf 6fc7 a73f 3173 a13f 3214 27bf
000001c0: c157 39bf fb30 c5bb 0f93 cbbf 2751 efbd
000001d0: fdfe 18bf be18 41bb b65a 72be f593 0ebe
000001e0: 6bea 953d 3d3a 0ebe 80e3 57bc 8d49 8e3d
000001f0: b916 3f3e b085 02be f608 8ebe 84d5 1b3f
00000200: d352 e43e f0e2 c5bf 6d63 da3e b688 6abe
00000210: ffaf cb3e e88e ab3e c34b 83bf a778 533f
00000220: 9982 c73f 0487 2e3f 3600 0640 10ef 663e
00000230: 7ac9 e63e 7499 ca3e 64f2 f73f 9489 a53e
00000240: c17d cebe ded0 6cbf 5d51 c1bd 5344 363f
00000250: b306 c33e 50ab 133f 9b2f 12bf f6ab 8e3f
00000260: 9e2e 003b 88d3 5c3d fe8c 17be 96dc 3cbf
00000270: 548b 4abe 6cb6 8ebe d183 94be 3004 55be
00000280: ca22 51bc 16cc 60be 044b a43d b242 50bf
00000290: 7444 61bd c2aa 593f 840b b23d 95d9 6fbf
000002a0: 4762 01bf 6b5c e03e 0ecd 7f3e e76c 0ebf
000002b0: bde8 57bd b9d7 e73e d9f9 5a3c 1ecd 093f
000002c0: b61b 823f fbfe 8bbf 43ad b93d dc1d d53b
000002d0: c4c3 a43d 85b9 843d d553 7bbe cc3c 883e
000002e0: 8fd8 bcbd ed0b 0f3e 8028 e33d 979b 0a3d
000002f0: c1b2 b2bc 5ce4 89bf aa72 fd3e 4dcd dbbe
00000300: 6999 4dbf 8050 2cbd 64fe b4be 5016 b3be
00000310: 604b e6be b130 503d cd32 febe 5f6b 84bf
00000320: 277d aabc b20d 22bf 71f4 47bf 72a5 6d3f
00000330: 93c8 653f 8f3c 3dbf bb49 3cbf fd6d 47bf
00000340: c75c 2abf ef76 b43f 0186 e9be 14f1 fa3d
00000350: d62a 8f3e 620a 90be d454 993f d04a 59bf
00000360: ec08 52bf 0f1d 8bbf 5278 573b 5233 283e
00000370: 0297 d9be 8fb4 013f 052e cfbe f390 803e
00000380: 0823 2fbd cb35 843e be3c 98bd 8815 ffbd
00000390: a0e0 c2bd cab2 ccbe 2ab3 e0be a0d3 f23e
000003a0: f275 1c3f 9859 47bf 30b1 653f 1343 5c3e
000003b0: 9bc2 d5bd 81e6 cfbe d985 4dbe 75af 323f
000003c0: 2530 dcbe 2e05 f5be 57a2 9c3e e7f5 833f
000003d0: 261d 3fbf 9369 94be eacf b8be c90f dabe
000003e0: 913e da3e 9979 7e3f 5c37 f6be f615 73be
000003f0: 698a 9c3d 88f7 163f e61c 713e ea17 043f
-0.44946283 -0.7127096 0.42078024 -0.96959996 1.0423142 1.488853 -0.7624375 0.13568775
1.6346912 2.0943768 1.4318619 -0.010717082 1.4322026 1.2399735 0.5625001 -0.3296053
-0.18450357 -0.8724341 -0.24114989 1.1989563 0.82707876 0.53242666 -0.7503786 0.5516902
0.54999506 0.67218405 0.25000596 0.4661666 -0.45219842 -1.550821 1.1001076 -0.7904292
0.09472485 0.29222488 1.1227717 0.46787006 1.3437911 0.4209134 0.8305328 0.6395255
0.36153162 0.29107696 0.3063596 -0.10057083 -0.18543442 0.45286277 0.43816605 0.9893559
-0.3337283 0.29313934 -0.06651778 0.6677697 0.70049506 1.219455 -1.3393506 1.3307828
0.7650319 -0.44044393 -0.68747354 1.6443304 0.55129325 -0.49852094 1.6412325 0.30706212
0.061363734 -0.8538721 0.29972854 -0.1938551 0.5756878 1.0282129 -0.66280127 -0.31635904
1.0908178 0.13356937 1.4910505 0.2488532 -0.051350728 -0.0036977497 2.0795887 1.6531613
-0.6747481 -1.3525888 0.3059024 -0.18622112 -0.37212843 -0.11026588 -0.48807642 1.9567846
0.057100408 0.5316219 -1.1330203 0.85439306 0.7487542 -0.14326873 0.25003505 -0.123457596
-0.114740945 -1.3069495 -0.13408355 -0.9616882 0.24780147 0.0045713168 0.5380793 0.4181035
1.0177555 0.5323116 0.17622305 0.06664474 -1.0195359 1.3107737 1.2613279 -0.6526519
-0.72399527 -0.006017802 -1.5904254 -0.116854005 -0.5976408 -0.002946421 -0.23667416 -0.13923629
0.07320102 -0.13889404 -0.013176799 0.069476224 0.18661012 -0.1274631 -0.27741212 0.60872674
0.4459444 -1.5459881 0.4265398 -0.22903714 0.39782712 0.33507466 -1.0257496 0.82605976
1.558673 0.6817477 2.0937629 0.22552133 0.4507559 0.395702 1.9370847 0.32331526
-0.40330318 -0.92506206 -0.09439347 0.71198004 0.3809105 0.5768328 -0.5710389 1.1146228
0.0019559036 0.05391267 -0.14799878 -0.7377409 -0.19779712 -0.27873552 -0.29006818 -0.20802379
-0.012764642 -0.21952853 0.080221206 -0.8135177 -0.054996923 0.8502618 0.08693603 -0.9369138
-0.50540584 0.4382051 0.24980566 -0.5563492 -0.05271219 0.4528177 0.013365232 0.5382861
1.0164707 -1.0937189 0.0906625 0.0065038037 0.08045152 0.064806975 -0.24543698 0.26608884
-0.09220993 0.13969393 0.11091709 0.03383979 -0.021813752 -1.0772815 0.49501544 -0.4293007
-0.8031221 -0.04206896 -0.35350335 -0.3497796 -0.44979382 0.050827686 -0.49648133 -1.0345267
-0.02081163 -0.6330215 -0.78107363 0.92830575 0.89759177 -0.7392053 -0.73550004 -0.77902204
-0.66547817 1.4098796 -0.4561005 0.12253013 0.2796237 -0.2813292 1.1979012 -0.8487978
-0.82044864 -1.0868243 0.0032878113 0.16425827 -0.42498022 0.50666136 -0.40464798 0.25110587
-0.042758018 0.2582229 -0.07433461 -0.12455279 -0.095155 -0.39980155 -0.4388669 0.47427082
0.6111747 -0.77871084 0.8972349 0.21509962 -0.10437509 -0.40605548 -0.2007059 0.69798976
-0.4300548 -0.47855514 0.30592605 1.0309418 -0.7465385 -0.28986797 -0.36096126 -0.42590168
0.4262586 0.99404293 -0.4808911 -0.23738846 0.07643587 0.5897145 0.2354618 0.5159899

lstm_cell_1.bias_ih f4 [128]
00000000: d97f d83e f684 2a3f 48cd e4bd 0d2f 49bd
00000010: f6a4 343f 4928 213f ef2c 0c3f 0a72 783d
00000020: e32f 873e 2b24 ec3e f6ed 1fbe 7135 343f
00000030: adad 123e 23ca c6be a2fd aa3e 282a 1e3e
00000040: a60b 793e 5ad1 37be ed3e fd3d 2fae 03bf
00000050: bc7b 6d3f af63 10be 5bb8 653c 188a e1be
00000060: 72f5 d33e 09d9 80be d223 1ebe d7ce 003d
00000070: 59a0 8f3e 2bd1 273b 1826 d93d 1aba 59bf
00000080: 34df 4dbf 3b0a bebe 3052 d7be 239f 90bf
00000090: 530b babf d265 3fbf 21ab 7dbf 02a1 82bf
000000a0: 3ab9 a7bd 2458 3ebf 2bcd 25bf eb48 5ebf
000000b0: abfa dfbe bcde 25bf 5b69 89bf 9451 04bf
000000c0: ac85 9f3e d147 0bbf 35e7 8fbf 3656 bbbf
000000d0: 564c dabf 80fb cabe 1247 2fbf 61a3 95be
000000e0: 3079 1ebf 4956 79be 1ce8 21bf f75f a5bf
000000f0: d567 f2bd f9d9 88bf a282 02bf df12 50bf
00000100: 5319 bc3e 65dc a83e 9c32 0b3e 0f03 cf3c
00000110: f5cf 653d cabb 9b3d 4e43 76be 6549 a9be
00000120: da63 0ebd 30bd 0bbe 8ccb c5bd 5e5c babe
00000130: b18b 4bbd c771 753e 1d07 3fbc 0426 9fbe
00000140: 90d4 90be 707a 563e 8dbb 173f 96a0 063f
00000150: 460b 083e ce78 b53d 5414 ea3c 23b1 313f
00000160: 2eff dcbe bbf3 4dbe 65b9 e0be 4ac4 393d
00000170: a6bb 353f ab5b 93be 049b 1bbe 4383 07bf
00000180: 0d46 cb3e 8bc0 a4bd 9c5a 2a3e cd7d 7abe
00000190: 7222 da3e c483 95be 5fc2 b4bc be40 1e3f
000001a0: 1833 093f 45e1 283f 74f6 f63c debe 033e
000001b0: 0ccb aebe 8327 c93e c74f fd3d 58b4 f53e
000001c0: f59b d1bd e648 24be a422 e63d 885a 08bd
000001d0: ae1a 14be e53e 39be 500f 43bc 15f1 233f
000001e0: 0f69 cfbd 8423 6cbe 0500 593f d796 223d
000001f0: be87 2cbf 2709 92be 7ab9 0dbf bb98 1f3f
0.4228504 0.6660913 -0.11171967 -0.049117137 0.7056421 0.62952095 0.54756063 0.06065563
0.26403722 0.46121344 -0.15618119 0.70394045 0.14324065 -0.38826093 0.3339663 0.15445769
0.2432085 -0.17950955 0.12365518 -0.5143766 0.9276693 -0.14100526 0.014021005 -0.4405067
0.41398197 -0.25165585 -0.15443352 0.031447258 0.28052023 0.0025606852 0.10602969 -0.85049593
-0.80418706 -0.3711718 -0.42054892 -1.1298565 -1.4534706 -0.7476474 -0.99089247 -1.0205386
-0.08189626 -0.7435324 -0.64766186 -0.86830014 -0.43745932 -0.6479299 -1.0735277 -0.5168698
0.3115667 -0.5440646 -1.1242434 -1.4635684 -1.7054546 -0.39645004 -0.6846782 -0.2922621
-0.6190367 -0.24349321 -0.63244796 -1.2919911 -0.11836211 -1.069152 -0.5098058 -0.81278795
0.3673807 0.32980648 0.13593525 0.025270013 0.056106526 0.07604177 -0.24049112 -0.33063808
-0.034763195 -0.13646388 -0.09657964 -0.36398596 -0.049693767 0.23969184 -0.011659411 -0.3108369
-0.28287172 0.20945144 0.59270555 0.52588785 0.1328555 0.08860932 0.028574146 0.69410914
-0.43163437 -0.20112507 -0.43891445 0.04535321 0.70989454 -0.28780875 -0.15195853 -0.52934664
0.39701882 -0.08044537 0.16636127 -0.24462052 0.42604405 -0.29202092 -0.02206534 0.6181754
0.5359359 0.65968734 0.030146815 0.12865779 -0.34139287 0.39287958 0.12368732 0.47989154
-0.102348246 -0.16043434 0.11237076 -0.033289462 -0.14463302 -0.18090399 -0.011905506 0.64039737
-0.1012746 -0.23060423 0.84765655 0.039694633 -0.67394626 -0.28522608 -0.5536114 0.62342423

lstm_cell_1.bias_hh f4 [128]
00000000: 6f87 e63e bc3d 653f 1b33 a8bd fa99 b5be
00000010: e427 373f 67f6 253f 5b17 d03e 437b 123d
00000020: f563 693e 4057 db3e 74a4 85be c914 e53e
00000030: 6b95 903d 4906 b2be 0961 993e 9145 3fbd
00000040: c2a9 1f3c 06ec ba3d 0dd0 ae3c 9c49 8bbe
00000050: 0283 743f dba7 47be 5afc 91be 480b 09bf
00000060: 5cf4 903e df53 58be b073 44be 96f9 693e
00000070: b350 da3e a31e 143e 1ee5 b23d 0c3f 46bf
00000080: dee2 2ebf 616f d2be 9a75 27bf 9f2c 89bf
00000090: a3a8 dcbf 90a6 5cbf e701 9fbf af5c 44bf
000000a0: d599 2a3e edb9 eebe 3953 58bf 0777 2fbf
000000b0: fdb4 e7be ecbc 60bf 8bce 8fbf f814 0abf
000000c0: 0c99 823c 9461 15bf 0038 92bf 42fb 97bf
000000d0: 64d4 b7bf 354a 50be bde9 fabe c9d2 08bf
000000e0: 940a 4abf bd14 50be f21e 38bf 8f4b a5bf
000000f0: 8b39 36be 339c 8abf 76d9 3ebf 3663 7abf
00000100: 4570 3b3e e619 113d 4fea d03e 985c 18be
00000110: f34d 8e3d 81e5 0f3e a075 a7be 55c7 b2be
00000120: e2ca 72be 692d f9bc feea 35bd bef1 09bf
00000130: dd4e 6cbe 976e aabd a979 1e3d c2a2 90be
00000140: 6ab3 10be ca4e 413e d160 113f 5a8e 7a3e
00000150: a022 583e 615f 52be f24f efbc 4d90 263f
00000160: e043 f4be 9ccf 2d3a 2ca5 81be 9207 dfbd
00000170: 2a74 403f 62cd 82bd 2f6a d0bd ede5 89be
00000180: 439f b23e c810 ccbd 15fa d43c 5279 90be
00000190: 62d1 cf3e 7b1d a3be 39b0 f8bc 0c0d 433f
000001a0: 489e 173f 87c5 0c3f bb18 80be 5b55 dd3d
000001b0: cf50 89be 3fcf 833e 7b4a 0f3e 1e05 c33e
000001c0: 9bf4 253d 6653 dcbe d52f df3d a926 56be
000001d0: 17d5 913d 2d6a 11be c18c 2b3e b16c 143f
000001e0: 733a b9be 044b b8be be87 183f b45d 9b3d
000001f0: 1280 29bf 04b3 c4bd 8774 37bf 349f 0d3f
0.45025203 0.89547324 -0.082128726 -0.35469037 0.71545243 0.64829105 0.4064282 0.035762083
0.22792037 0.42840004 -0.2610203 0.4474242 0.07059749 -0.3477042 0.29956844 -0.046697203
0.009745063 0.09127049 0.02133944 -0.27204597 0.955124 -0.19497626 -0.2851284 -0.5353284
0.2831143 -0.21125744 -0.19184756 0.22849116 0.42639694 0.14464812 0.08735107 -0.7743995
-0.6831492 -0.411006 -0.6541382 -1.0716742 -1.7238964 -0.86191654 -1.2422456 -0.76703924
0.16660245 -0.46626225 -0.8450199 -0.68540996 -0.4525527 -0.8778827 -1.1234907 -0.53938246
0.015942119 -0.5835202 -1.142334 -1.1873553 -1.4361691 -0.20340808 -0.49006453 -0.5344663
-0.7892239 -0.20320411 -0.7192222 -1.2913684 -0.17795388 -1.0828918 -0.7455057 -0.97807634
0.18304546 0.03542509 0.40803763 -0.14879072 0.069484614 0.14052393 -0.32706928 -0.34917703
-0.23710206 -0.030417161 -0.04441356 -0.53884494 -0.23076959 -0.083218746 0.038690243 -0.28249174
-0.14130941 0.18877712 0.56788355 0.24468365 0.21106958 -0.20544197 -0.029212926 0.65063936
-0.47708035 0.00066303625 -0.2532133 -0.10890116 0.7517725 -0.0638683 -0.10176503 -0.26933232
0.34887132 -0.09964138 0.025998155 -0.2821756 0.40589434 -0.3185843 -0.030357467 0.7619178
0.59225893 0.549889 -0.25018868 0.10807296 -0.26819465 0.25744054 0.13993256 0.38089842
0.040516477 -0.43032378 0.10897795 -0.20913185 0.07120722 -0.14200659 0.16752912 0.5797835
-0.36177406 -0.35994732 0.59582126 0.07586232 -0.66211045 -0.09604457 -0.7166218 0.5532105

lstm_cell_2.weight_ih f4 [128, 32]
00000000: 39d8 223e efe9 90be c390 17be 060e 56bf
00000010: a91d fc3d 6627 aabf 8a21 523f 4427 5bbf
00000020: 03db 1c3f 7142 0bbe f759 33bf fc2d af3e
00000030: 258f d6be e6fb 8c3d 9751 27bf 518f dd3f
00000040: 31b4 38be dfff 5e3f a176 033e 6499 353e
00000050: 76b6 2a3f 194b 0fbf 34ab e2bd 2d99 e13e
00000060: d94d efbe 93a7 ef3d 5566 b3bf c70c 39bf
00000070: 6ef2 16bf 0f51 033e 3177 dfbe ccad 7d3f
00000080: b990 473d d77e a63d da7e 213f b2a5 0fc0
00000090: abfb cfbe 3e96 6cbe e001 9a3e 2a2c 3c3f
000000a0: 105c 173f 24c3 203e b6e0 ecbf adbb babe
000000b0: 4e32 d3be 8e54 c83e 6e46 80be 0a49 9ebf
000000c0: 1dc6 ddbe 6b6e 45bd 1baf 18bf c992 d83e
000000d0: b90e b43f 64b4 693e 1cbd 323f 5d7f cc3e
000000e0: 631f 61be 683f c53f e32a dd3e f3fc f6bf
000000f0: 3859 33bf d56d 993f a510 bfbf 2f87 ef3e
00000100: caa8 9c3f 0456 bebe c9e6 e33f d3da 03bf
00000110: e796 45bf cd11 acbd ad36 393e b5a3 733f
00000120: f0a2 243f 56e0 f03f b281 40bf 237e 23bf
00000130: 67bd 893e fadd 773f 4b7a 2f3e 4fc7 8dbf
00000140: 00a3 c33c b99a e43e 8b92 5cbf 90d7 22bf
00000150: de76 d53e fd5f 3340 9bc5 09bd e6ae cc3f
00000160: 5d82 70bf 0dde e33f 6b44 14c0 33ca 2c3f
00000170: 47cb f93f 1bec ddbe 581a 17bf dfc8 bcbf
00000180: 13e3 14bf de59 1abe 19a6 0f3f eef6 26be
00000190: cae2 d7be 3153 9dbf 4c97 49bf 25a6 7abf
000001a0: 2c6c 97bd e686 81bf daca 47bf 3843 063e
000001b0: c2db 72be 7804 afbe d6a6 8dbe 7af5 903f
000001c0: b9d8 d3be 49cc 443f 83d5 e0be c552 c5be
000001d0: c60a a5be e277 a03f f53f 9e3e 0876 063d
000001e0: 092f 383f 9514 dd3f 8613 67bf 15d5 0b3e
000001f0: 3474 b1bd 0d61 94bc b877 2dbf 982f eb3f
00000200: b89e c53e f1e9 333f d183 c93f 8e3b 513e
00000210: 8397 cabb fdcc 913d e550 86bf f309 673d
00000220: b449 163d cd19 1a3f 02e5 f6be b180 0cbf
00000230: b7c9 303f f54c 9f3f f190 cabf d6ef 313f
00000240: 697a d53e 348d 463e dc50 55be 995d 6dbf
00000250: 9237 d73d 68a7 923f b372 013f 1d6e 7ebe
00000260: 9fa6 91be 466a 1b3f d56b b53d 7a10 8dbf
00000270: 80ec 933f 68a4 08be 6135 c1be 5cb7 dc3e
00000280: 11dd 0abd 8822 84be 91d2 aabf 929f b63e
00000290: e382 b5be 14a0 eabe 4c4d f73e d829 b2bf
000002a0: 25dd 843d 551d a0bf a750 563f d609 8fbf
000002b0: ee3f 2bbf 2627 a63e 2026 c4be 5924 9a3f
000002c0: 0515 4e3e 7da1 29bf cc95 a93f c4ff c03e
000002d0: 769b 4cbf 67f1 ce3d dee4 fc3e 84e5 c2bf
000002e0: 0c21 5ebf 03fc f63f 18d3 b33c 995d 933f
000002f0: 7b7e 5cbf 5b9a 21be fd7b 36bf e17b be3d
00000300: 34c1 123f d951 7bbf ce1f adbf 78be 213f
00000310: 678f 9c3f cc5d e6bb 95e9 37be 940f aebe
00000320: 987e 393f 6c97 b03e ff4b ff3f 3e03 1c3f
00000330: fd9b f43e 4637 a8bf 38b4 ab3f dc71 4abf
00000340: 2410 d5be 7f6f e3bf e229 ba3f 92e8 f23e
00000350: 4f3d f9be 2189 8d3e 69c8 a7be 2e29 89bd
00000360: 99ab cb3f a7a7 71bf 2dc3 b73f 6dc7 01bf
00000370: 83ce 3bbf 751c 54bf 9980 76be 54d9 af3e
00000380: ece2 193f 5ba2 983d d2ab ef3d 458a 353f
00000390: f6ed a43e b08b ab3e f776 dd3e fed4 f5be
000003a0: e4bf ad3d 5370 5b3e a444 babd af1c 5f3e
000003b0: ee71 cdbd c94b 0ebf 089a d3bd 38e7 fd3b
000003c0: b972 c33e 06e5 533e 5658 053f e9a8 44bf
000003d0: df64 083f fcbf b43f fd7e 393e bedc 00bf
000003e0: 4495 773e e8d5 0cbf d43b f1be 1630 36bf
000003f0: df8b c2be 3ecf 943e 80af d7be 653f 593f
0.15902795 -0.28303477 -0.14801316 -0.8361515 0.12310345 -1.3293273 0.82082427 -0.8560679
0.61271685 -0.13599564 -0.7005915 0.3421477 -0.41906086 0.06883983 -0.6535887 1.7309362
-0.18037488 0.8710918 0.12838222 0.17734295 0.66684663 -0.55973965 -0.11067811 0.44062176
-0.4673908 0.11701884 -1.4015604 -0.7228512 -0.5896367 0.1282389 -0.43645623 0.9909332
0.048722003 0.081296615 0.63084185 -2.2444882 -0.40621695 -0.23104188 0.30079556 0.7350489
0.5912485 0.1569944 -1.8506076 -0.3647131 -0.41249317 0.3912701 -0.25053734 -1.236604
-0.4331521 -0.048201006 -0.5964219 0.42299488 1.4066993 0.2282272 0.6981981 0.3994092
-0.2198463 1.5409975 0.43196782 -1.9295944 -0.7005801 1.1986643 -1.4926955 0.46782824
1.223901 -0.37175 1.7804805 -0.51505774 -0.77183384 -0.08401833 0.18087263 0.9517167
0.6431112 1.8818462 -0.751979 -0.63864344 0.26902315 0.96823084 0.17136495 -1.1076449
0.023881435 0.44649294 -0.86161107 -0.6361017 0.4169225 2.8027337 -0.033635717 1.5990875
-0.9394892 1.780214 -2.316676 0.6749603 1.951516 -0.43344197 -0.5902457 -1.4748801
-0.5815899 -0.15073344 0.5611282 -0.16305134 -0.42165214 -1.2291013 -0.78746486 -0.97909766
-0.07393679 -1.0119293 -0.780439 0.1311158 -0.23716643 -0.34183097 -0.27666348 1.1324914
-0.41376284 0.76874214 -0.43912897 -0.3853971 -0.32234782 1.2536585 0.3090817 0.032827407
0.7194677 1.7271906 -0.90264165 0.13655503 -0.08664742 -0.018112684 -0.677608 1.83739
0.38597655 0.7027884 1.5743352 0.20432875 -0.0061826124 0.071191765 -1.0493437 0.056405973
0.036691383 0.6019562 -0.48221594 -0.5488387 0.6905779 1.244536 -1.5825483 0.69506586
0.41694954 0.19389802 -0.20831627 -0.92720944 0.10508646 1.1457338 0.5056564 -0.24846692
-0.28447434 0.60709035 0.08858458 -1.1020653 1.1556549 -0.13343966 -0.37736037 0.43108642
-0.03390223 -0.25807595 -1.334551 0.35668617 -0.3545142 -0.45825255 0.4830116 -1.391902
0.064874925 -1.2508951 0.83716816 -1.1174877 -0.66894424 0.32451743 -0.38310337 1.2042342
0.20125206 -0.66262037 1.3248839 0.37695134 -0.79924715 0.101046376 0.49393362 -1.5226293
-0.86769176 1.9295658 0.021951243 1.1512939 -0.86130494 -0.15781538 -0.7128294 0.09300972
0.57326055 -0.98171765 -1.3525331 0.6318126 1.2231263 -0.0070302244 -0.17960198 -0.3399626
0.7245879 0.34490526 1.9945067 0.6094245 0.4777526 -1.3141868 1.3414373 -0.79079986
-0.41613877 -1.7768401 1.4544032 0.47443062 -0.48679587 0.27643684 -0.32770088 -0.066973075
1.5911742 -0.9439644 1.4356438 -0.50694925 -0.73361987 -0.8285592 -0.24072494 0.34345496
0.6011188 0.07452842 0.11702694 0.7091411 0.322128 0.3350501 0.43254825 -0.48014063
0.08483866 0.21429567 -0.090951234 0.21788286 -0.10031496 -0.5558439 -0.103321135 0.0077485107
0.38173464 0.20692834 0.52087915 -0.76820236 0.5327892 1.4121089 0.18114848 -0.50336826
0.24178034 -0.55013895 -0.47115958 -0.71167123 -0.37997338 0.29064363 -0.42126083 0.8486236

lstm_cell_2.weight_hh f4 [128, 32]
00000000: 402e 8abe 7c69 d13e 2a8b 5f3e be58 49bf
00000010: b617 083e 7363 0b3f 6cd8 dabe 7085 c9be
00000020: 18fc 253e 921b 123f 7e6c 5a3e 95da 11be
00000030: 4e25 0bbd d265 04be e74b 21be a1a8 c53e
00000040: db73 993e f11f dc3d 546f ad3e dc2a 753e
00000050: f084 ab3e 54b1 97be 261c 2dbf 1dee 3c3f
00000060: c045 29be 58d8 8dbe 3470 acbd 2b3e c43e
00000070: 5f27 f6bd 42e3 8e3f 32b6 ff3c a2d1 153f
00000080: 6cee f03d 823e c7bf aada 0cbe 9c4e 693e
00000090: 1d1c 033d 8457 3abf 5076 233e 4349 a83e
000000a0: d154 bbbd e37e f8bd 16b4 9c3f 1017 22be
000000b0: 21a6 8bbe 2c79 91be a293 873d 53f9 a3be
000000c0: c960 2fbc 6e8c d2bd e888 48bd c779 6cbf
000000d0: 97bc 7fbd eb8d 353f b50b 0ebf ebec c7bd
000000e0: a62f 3cbf d6b7 5d3e 6c4a c13e 0902 a0be
000000f0: b190 aebd 1b08 8a3e ae29 12bf 2b57 67be
00000100: 026e ccbe ffdf 9fbe 2d37 a6bf c75a a4bf
00000110: 6373 51bf 04af 673e 4986 c93e a5e1 593f
00000120: ffc7 2bbf 9aeb c63c d4c0 b23e 6e27 5ebe
00000130: c15c f0bd 2971 57be 4a53 9d3e 4437 bbbe
00000140: 7e31 753f ff79 d63e d063 343e 1763 c33d
00000150: 9862 6bbd 28f4 9a3e 23e4 35bf 065b 15bf
00000160: 1a0a 46bf 7216 943f 9e95 b03c 3e82 3bbf
00000170: fc84 96be a479 523e ea57 4cbf 39f0 d43e
00000180: ce9d d23f bda0 30bf 964c 92bf f01f aabd
00000190: 032c 90bf a6c6 a3be 6d43 0abd 2215 f3be
000001a0: 2ea6 bd3e ff1a 463f 6a8a c3be 2fbf 51bf
000001b0: f45b 89bf c5a2 f5bd bdab 8b3e e323 e6be
000001c0: 0d8d 833f fc76 103e 79bd 163d af13 c43e
000001d0: ecea 6bbf f35c 74be bb73 08bf a96c f1bf
000001e0: 12fa babe 0b2c 343f 79fe 41bd 78b7 40be
000001f0: 65a0 97bf 84b2 003f 47b9 b3be 99c8 82bd
00000200: 26a2 bebe 1f0b 24bf 174f c8be 0a63 b0be
00000210: 9ea5 06be 76ef 053f ca3c 1d3f 7d45 f93e
00000220: 9519 9dbd 09e9 003f 530f eabe 4c9d 67bd
00000230: 115c 8abe 3565 8f3d b13e 1fbe 4318 17be
00000240: debe 083e 48a5 673e da29 0b3e 41b8 a13e
00000250: ec8f 70be a5c9 b33e 24c5 84be 89d3 b7be
00000260: f245 27bf f94a 2b3f fe0a 95ba ab4b 8abe
00000270: e6dd c1be bd6c 433e e4f2 303f 9f2b 86be
00000280: 88b4 9c3e d546 9a3f 3e85 2bbf bda2 89bf
00000290: a3fe c03e 4dda f73f 410c ad3c b2ca 34bf
000002a0: 0839 eabe 9565 c1be df91 b1be 3bc0 963c
000002b0: fe83 43bd d399 3cbf 57fc 62be 9ead 7f3d
000002c0: ec30 1bbe e02f 813f 3c18 893f 78d2 a83e
000002d0: f356 e7bd 726c cb3b 825d b03f 1ea9 06bf
000002e0: 6c83 b2bd ec9c e0be 60b7 13bf 2e9d 54bd
000002f0: 51d7 3abe 56cb 8c3e daa2 043f 8c5c 29bf
00000300: 05c5 08bf a10a 013f b6c8 30be 6b36 c43c
00000310: e66c 673c d971 6f3e cea6 da3f 6749 0f3f
00000320: a096 01bf 4d6c ae3e df66 7b3f 892e b43f
00000330: 07ca 91be a160 6b3f 2ff3 c83b e4a5 b4bf
00000340: cca0 5dbf a044 89bf 0e5b 4abf fd3c 98bf
00000350: ef62 283f 4add 4dbe d9aa 8c3f ff60 b1bd
00000360: dac6 fcbc 8bd1 b3bd e3e9 34bd 2397 45bd
00000370: 1a5a 3bbf e2fd 9b3c a27e 8e3f 4fa4 33be
00000380: 4f8c 343f 89fe a8bd f22a 85bb baf4 aa3d
00000390: 09b6 7d3e 6af8 50be 30e8 1dbe c515 8dbe
000003a0: 9709 073e bca0 16be b880 5ebd 80d0 713e
000003b0: e071 283e 193f 183f eafa 03be 6852 08bd
000003c0: 3f57 ab3e 7414 803c ae20 0d3c 2786 bcbe
000003d0: 4e43 df3e f664 1fbe 705b 0d3e 1aa1 a93c
000003e0: fc72 dfbe 2320 a7be 5beb d73e a313 843e
000003f0: 6756 a7be 1639 e4be 114c 2f3f 3482 d93d
-0.2698841 0.4090079 0.2183043 -0.78651035 0.13290295 0.5444862 -0.42743242 -0.39359617
0.16209447 0.5707332 0.21330449 -0.14243539 -0.033971123 -0.12929466 -0.1575161 0.38605216
0.29971203 0.1074828 0.33874 0.23942131 0.3349986 -0.29627478 -0.67621076 0.7380083
-0.16530514 -0.2770412 -0.084198385 0.3832868 -0.12019228 1.1163104 0.031214807 0.58523
0.11764225 -1.5565951 -0.13755289 0.22783893 0.032009233 -0.7278979 0.15963101 0.32868394
-0.09147037 -0.12133577 1.2242458 -0.1582911 -0.27275184 -0.2841276 0.066199556 -0.32026157
-0.010704228 -0.10280691 -0.04895869 -0.9237332 -0.062435713 0.70919675 -0.55486614 -0.097619854
-0.73510206 0.21652159 0.37752092 -0.31251553 -0.085236914 0.2695931 -0.5709485 -0.22591846
-0.3992768 -0.31225583 -1.2985588 -1.2840203 -0.8181669 0.22625357 0.39360264 0.8510993
-0.67102045 0.024282265 0.3491274 -0.21694729 -0.117364414 -0.21039261 0.30727607 -0.36565602
0.95778644 0.4188995 0.176162 0.09540384 -0.057467073 0.302644 -0.71051234 -0.58342016
-0.77359164 1.156935 0.021555718 -0.7324561 -0.29398334 0.20554215 -0.79821646 0.41589525
1.6454408 -0.6899527 -1.1429622 -0.08306873 -1.1263431 -0.31987494 -0.03375571 -0.4747706
0.37040848 0.7738494 -0.3819154 -0.8193235 -1.0731187 -0.119939364 0.27279463 -0.44949254
1.027742 0.14107889 0.03680179 0.38296267 -0.9215534 -0.23863582 -0.5330159 -1.8861285
-0.36518914 0.70379704 -0.047361825 -0.18819988 -1.1845824 0.50272393 -0.35102293 -0.06385917
-0.37233084 -0.6407947 -0.3912284 -0.3445056 -0.13149115 0.52318513 0.6142088 0.48685828
-0.07670895 0.50355583 -0.45714816 -0.056546494 -0.27023366 0.070017256 -0.15551259 -0.14755349
0.1335406 0.22621644 0.13590184 0.31585887 -0.23492402 0.3511478 -0.25931656 -0.35903576
-0.65341103 0.66911274 -0.0011371074 -0.27010855 -0.37864608 0.19084449 0.6912062 -0.26205155
0.30606484 1.2052866 -0.67000186 -1.0752789 0.37694272 1.9363495 0.021124007 -0.7062179
-0.45746636 -0.37772813 -0.34681603 0.01840221 -0.0477333 -0.7367222 -0.22166573 0.062421434
-0.15155381 1.0092735 1.0710521 0.32973075 -0.11295881 0.006207996 1.3778536 -0.526018
-0.08716473 -0.43869722 -0.57701683 -0.05190771 -0.18246199 0.27498883 0.5181099 -0.6615684
-0.5342563 0.50406843 -0.17264065 0.02395173 0.0141250845 0.23383273 1.7082155 0.5597138
-0.5062046 0.34067002 0.98203844 1.4076701 -0.28474447 0.9194432 0.0061325054 -1.4113126
-0.8657348 -1.0724068 -0.7904519 -1.1893612 0.6577596 -0.20103946 1.0989639 -0.08661079
-0.030856539 -0.087802015 -0.044168364 -0.04823984 -0.7318436 0.01904196 1.1132395 -0.17543148
0.70526594 -0.08251674 -0.0040639574 0.08347459 0.24776472 -0.20407262 -0.15420604 -0.2755567
0.13187252 -0.14709753 -0.054321975 0.23614693 0.1644969 0.5947128 -0.12888685 -0.033281714
0.33465 0.015634753 0.0086137485 -0.368211 0.43606037 -0.15565857 0.13804412 0.020706702
-0.43642414 -0.32641706 0.4217175 0.25796232 -0.32683107 -0.44574803 0.68475443 0.106205374

lstm_cell_2.bias_ih f4 [128]
00000000: 6a71 a63e 6c85 463f 31a8 37be 592f a53f
00000010: 9c4d b6be 0084 69bf 9e92 0c40 da66 763e
00000020: e1b4 643f aca0 073f 4e5b a83e bf18 af3e
00000030: e727 c4be 570f 373e 14d4 953e d2e1 c93f
00000040: 3bf5 413f 7980 e63d c587 b43e 45ca 353e
00000050: fae5 4fbe 3e55 8fbe 485b 393e ee7c 39bf
00000060: 4761 893f b5f0 833f 9755 223f ec5e 7d3e
00000070: 2e0e 003e d64f 4e3f 1e8d 303f a76e 3f3e
00000080: 7b44 00bf 7124 ebbf 9c0d 84bf 3db1 64bf
00000090: 5503 a4bf 6823 93bf e57f d7be a9d0 69bf
000000a0: 22e9 86bf f860 05bf d1d8 9abf c592 03bf
000000b0: 818c 2abf c06f 37bf de01 49bf 3432 5fbe
000000c0: 0b35 09c0 67eb 90be 99fe c83d 2c52 a03d
000000d0: 2a6a b7be ddc0 43be 77da a1be aedb a8bf
000000e0: 6578 cfbe 5e47 35bf 9137 03c0 3d5c 22be
000000f0: 8683 3dbe 685e 24bf 8811 06c0 04f7 7ebf
00000100: 18cc 66be 49ef 03be 7d1a 2dbf fe72 0dbe
00000110: 595f 48be 4f99 c43e 8cdd 083f 0aa1 dc3e
00000120: 8569 6dbf e7cd d1bd 5536 723f 19f7 8a3e
00000130: e79e 593e 6b03 19bd 51f0 973f 5435 06bf
00000140: 5a02 86be c86f 6abc 105f 01bf fc76 ed3b
00000150: 172d c73e 8aa8 973b b23d 8abe 4c48 53ba
00000160: 98ba f83e a7c3 04bf 1c6b d0be 37ce eebc
00000170: eca1 233c 0607 55be 1501 493f d218 61be
00000180: 0a1b 7dbf a5b2 613f dad2 10bf 3d47 04bf
00000190: a25e 713d d6d7 403f a41b f5be c579 c63a
000001a0: 5ab2 9dbf 55ef 5fbe 738b 05be 2029 973f
000001b0: 04c0 81bf 2073 cd3e 19b9 fd3e f4ef 3fbf
000001c0: 8d3c a93e bde7 763f 360d da3e 0753 a93e
000001d0: 480a 4f3f 9e33 ff3e 9743 8b3d 2af1 7bbc
000001e0: 4fed 30be a65d e23e 0dc4 843f b28e f93e
000001f0: ef97 21bf 1648 923f b4b9 eebe 2d77 673f
0.32508403 0.77547336 -0.17935254 1.2905074 -0.35606086 -0.9121704 2.1964488 0.24062672
0.893385 0.5297954 0.3288216 0.34198567 -0.38311693 0.17876945 0.29263365 1.577204
0.75764817 0.11254973 0.35259834 0.17752941 -0.20302573 -0.27994722 0.18101227 -0.7245625
1.0732812 1.0307833 0.6341185 0.24743241 0.12505409 0.8059057 0.6896533 0.18694554
-0.5010449 -1.8370496 -1.0316653 -0.89332944 -1.2813517 -1.149518 -0.42089763 -0.91334015
-1.0539896 -0.5210109 -1.2097417 -0.5139583 -0.6662064 -0.7165489 -0.78518474 -0.21796495
-2.1438625 -0.28304598 0.09814186 0.07828173 -0.35823184 -0.1911654 -0.31611988 -1.3192041
-0.4052154 -0.7081202 -2.0502665 -0.15855499 -0.18507203 -0.6420655 -2.09482 -0.99595666
-0.22538793 -0.12884249 -0.6761854 -0.13813397 -0.19567622 0.38398215 0.53463054 0.43091613
-0.92739135 -0.10244351 0.94614154 0.27141646 0.21252023 -0.037356775 1.1870214 -0.5242512
-0.2617367 -0.014308877 -0.5053568 0.00724685 0.38901588 0.0046282457 -0.27000195 -0.00080597843
0.4857986 -0.5186104 -0.40706718 -0.029151065 0.009987336 -0.2080346 0.78517276 -0.21982124
-0.98869383 0.88163215 -0.56571734 -0.516712 0.05892814 0.7532934 -0.4787265 0.0015142491
-1.2320054 -0.21868642 -0.13041477 1.1809425 -1.0136724 0.40126896 0.4955528 -0.74975514
0.3305401 0.96447355 0.42588204 0.33071157 0.8087506 0.49844068 0.06800001 -0.015377322
-0.17278026 0.44212073 1.037233 0.4874168 -0.6312246 1.1428249 -0.46626055 0.9041622

lstm_cell_2.bias_hh f4 [128]
00000000: 94e1 dc3e 51bf 853f 5bb9 a5bd 3192 c43f
00000010: c620 1bbd a5e8 3cbf c607 0a40 9239 833e
00000020: 23b4 3e3f acce 5a3e f379 5c3c ad07 aa3e
00000030: dc55 e4be c944 9fbd 5cd0 893e 62ee f23f
00000040: d097 f83e c7b7 d13d 924a df3e d979 153d
00000050: 2a59 5cbe 3bf0 1bbe 3425 5e3e 0833 29bf
00000060: 077f 633f bd7d a83f 521d 5b3f 1809 bc3e
00000070: d41a d5bd 6a81 3e3f 8ec3 173f d1f6 573d
00000080: 64cc 89be df23 f0bf 52cd 33bf 6678 37bf
00000090: d787 9bbf 6361 88bf 8c32 64be 6511 68bf
000000a0: 60b8 8dbf 34b0 4abf 0f37 a5bf 6bd5 c9be
000000b0: ebe2 26bf 96ef 47bf d233 0cbf b130 98bd
000000c0: e5ee 04c0 5119 92be 9076 783c 0a6a 663c
000000d0: bb8c 93bd 8a88 163e 8957 dfbd 0a13 99bf
000000e0: 1406 dabe aa4c 47bf 01ba dfbf e139 1cbe
000000f0: b287 62be f69d 44bf 1721 f3bf 3744 99bf
00000100: 7389 a23d b388 97bd 6d8e 63bf 9794 aebe
00000110: 9157 debc c32a c83e 2344 513f a86a d83e
00000120: 6917 87bf 00a1 90be 37df 913f 02f0 e33e
00000130: dace 343c e881 14be 790d 963f b895 26bf
00000140: 4307 4bbe 1424 5fbe 70e6 47be 4f22 f03d
00000150: 2195 a13e 2bcb d53c ca4c 39be 6fa9 c43c
00000160: 4009 1b3f b4d5 1abf 1582 6bbe 16be 393e
00000170: 035c 6b3e 4470 f2bc 57a0 273f de70 3abe
00000180: 985c 7fbf ffa6 663f 5298 43bf 12f5 37bf
00000190: c1ee a03d 9620 2b3f dac9 22bf 5bf8 783e
000001a0: 39cb 75bf c444 56be eb29 ab3c 9f49 883f
000001b0: 4f8d 83bf af4f 053f bb06 b93e d482 23bf
000001c0: bbaa c33e b624 7b3f c7b1 0e3f 68ab 6f3e
000001d0: 3627 493f 29a6 f23e b90a 25be 8d9f 78be
000001e0: 47cf 60be 36ef d13e f2de a23f 189f 0e3f
000001f0: 214a 6ebf 72de a83f 120b 1dbf a187 643f
0.43140852 1.044901 -0.080919944 1.5357114 -0.037873052 -0.7379249 2.1567245 0.2562986
0.74493617 0.21367902 0.013456809 0.3320898 -0.44596756 -0.077767916 0.26916778 1.8978999
0.48553324 0.10240131 0.4361158 0.036493156 -0.21518388 -0.1522836 0.2169388 -0.6609349
0.88865703 1.3163372 0.85591614 0.36725688 -0.10405508 0.7441622 0.5928277 0.052725617
-0.2691375 -1.8760947 -0.7023517 -0.7166809 -1.215083 -1.065472 -0.22284907 -0.9065154
-1.1071892 -0.79175115 -1.2907428 -0.39420637 -0.6519 -0.78099954 -0.5476657 -0.07431162
-2.077081 -0.2853494 0.015164986 0.014063368 -0.072045766 0.14700523 -0.10905368 -1.1958935
-0.42582762 -0.77851355 -1.7478639 -0.15256454 -0.22122076 -0.7680353 -1.8994473 -1.1973943
0.079363726 -0.0739912 -0.888892 -0.3409774 -0.027141364 0.39095125 0.81744593 0.42268872
-1.0554019 -0.28247833 1.1396245 0.4451905 0.011035645 -0.1450268 1.1722862 -0.650722
-0.19826989 -0.21791106 -0.19521499 0.11725294 0.3155909 0.026097855 -0.18095699 0.024006573
0.6056099 -0.60482335 -0.22998841 0.18138918 0.22984318 -0.029594548 0.65479034 -0.18207118
-0.9975066 0.90098566 -0.764043 -0.7185832 0.07858039 0.668466 -0.6358925 0.2431349
-0.9601322 -0.2092467 0.020894011 1.0647467 -1.0277499 0.5207471 0.36137947 -0.638715
0.38216195 0.9810289 0.55740017 0.2340523 0.78575456 0.47392395 -0.16117372 -0.24279614
-0.2195407 0.41002816 1.2724288 0.5571151 -0.9308186 1.3192885 -0.61345017 0.89269453

fc_1.weight f4 [64, 32]
00000000: 0ca1 683e 299d 91bf 460c b83d c252 93be
00000010: 76f7 70be c793 373f b618 9ebf 7520 8f3e
00000020: e084 493f 3839 a63e 59c5 efbf 8521 b93e
00000030: 062b 8abe 4b9a a63e 7b5d df40 a539 0d3f
00000040: a611 97bf d92d 98bf 02bf 4dbe d7ed 213f
00000050: 593a ce3e a6f5 b13b c3ec b23e daf2 0d3f
00000060: 17ea 1d40 c5be d9bf b6cc 81bf 6412 6cbe
00000070: f1e7 58bf 86f5 abbf 26cb fcbf f0d8 c63f
00000080: ee75 59bf 6b13 90bf 1d19 b3be 1d63 983f
00000090: 921e 93bc 6d76 f1bf 7535 b93f 5d94 3b40
000000a0: 38e5 94be de4e 25c0 31d5 19be 372b a93f
000000b0: 9db1 c33e 1098 0ebd ea79 cfbd 3518 f8be
000000c0: 6e91 96bf c9e1 cbbe e073 253f dda9 713f
000000d0: ee26 4ec0 d9bd 363f 4c42 25bf 61d5 933e
000000e0: e08c 2f3f 0bf8 6a3f c7a4 22be 4f0d 62bf
000000f0: 96f6 1840 1bd0 d03e 4f43 023e 7d98 2dc0
00000100: 5d87 1abf 349d 913f c2bb 5d3f 44b5 3c40
00000110: c902 c53f b77b cfbf 83d3 0ac0 c7d8 2040
00000120: 5c12 533f ef19 b8bf 20b4 493f 43ec bf3f
00000130: 0d8d 793f 511a 6c3f 6840 323f 4411 7e3f
00000140: bc39 383f 39eb febe 881b a73d 73df a03f
00000150: 05ba 603f a217 b13e 89f7 b4be aaea a43f
00000160: 5b0e 4a3f 3375 86be 6213 8bbf 400b 27bf
00000170: 10aa 4940 dc8e 3dbf efe7 353f b193 3e3f
00000180: 7e57 803f c3f3 7bbf c978 3b3f 6eca 833f
00000190: a481 013f ab6a c8be a52a 5abd 5193 1641
000001a0: cd52 f43e d934 80be 4b87 5bbe c64a 0040
000001b0: 2b2e 84bf ca69 74bf ebda d3bc 24f5 2e3d
000001c0: 75bd acbf cf2b 9abf 76ca 62be 0c16 09c0
000001d0: 639b 48bf 2962 983d 823c 413f 7416 b43c
000001e0: a7b1 87bf 34e4 573f c900 b33e 9254 88be
000001f0: ae46 363f 61cf 683e 3953 cfbf 4b6e 10bf
00000200: b233 dcbc f870 e8bf e24e 81be ceb5 dd3f
00000210: 28c9 fcbd b38d d4bf 578b 0c40 9af2 ae3f
00000220: 689d 8d3d 01c4 88bf c7cc 5940 cc66 dbbe
00000230: 667b 00bf 4c5d abbf c279 babf 57ae 3ebf
00000240: 6e5c 05be 381e 3f3f 85f3 a8be 3468 4c3f
00000250: 507f 8abf 78f0 353f ef5f 983f d35b c5bf
00000260: 101b a5bf 693b 7cbe e7f9 0b40 047c c4bf
00000270: 1cb9 7d3f 1f07 c4be e614 3cbf 5681 ecbf
00000280: 2821 67be 20cb 653d 3df1 de40 0523 b63f
00000290: f1d2 ee3e 5072 4fc0 d8ec bebf fd86 763f
000002a0: 5ad8 ca40 3b7c d83e 97bf c8be 88c8 a03f
000002b0: a59a 973f b711 813e dbe8 0ebf d25a 3840
000002c0: 2b12 e2be 24f7 fabf bb58 3d3e 48cb 47be
000002d0: d6e6 21bf 8105 283f 15db f1be bf12 aa3f
000002e0: 3361 4a3f 0f1c c03f 97b1 e33e fb71 113e
000002f0: b2f3 28bd 30a2 273f 4a2d 17c0 a251 42bf
00000300: 9957 803f 23ba fe3f 674a a13f 340b 633d
00000310: 851a 1f3f 21c2 d93e 0355 b7bf 348e 42bf
00000320: cd47 163f 36bf d23e c704 51bf 9e04 31bd
00000330: 4598 7bbf b9b6 cd3e a966 543f 18a4 7a3f
00000340: 65d5 adbf dade 93be 5c52 8dbe 782f b93f
00000350: 9b34 363f 4ef9 c0be c5e3 3dbe 2b4a ec3f
00000360: 8034 673f 0442 debf 7dfe 7cbf 2e3a 303d
00000370: 4246 56bf e914 f4bf 767f b03c 81b4 b73d
00000380: 28b6 97be 8f4b da3e fedd 663f 5d5d 2fbd
00000390: 5ffb 1abf cbff c53e a75d e4bf 052c 0ebe
000003a0: eddd ba3f 154e 14bf 23f0 6ac0 9156 b1bf
000003b0: fedc 9a3e be2f 1c3f 516b 05c0 ccbd 1540
000003c0: 304b f5be 1dfe 5a3f 9c6e c0bf 7e60 e03f
000003d0: f233 f4be 087f 3abf bb81 b2bf efdb c13f
000003e0: 3ddd 02c0 12ec 653f a41b 84be 13a6 743e
000003f0: 3b4a f93d cf61 be3e d48f bfbf 1209 033f
0.22717685 -1.1376086 0.08986716 -0.28774077 -0.23531899 0.71709865 -1.2351291 0.2795445
0.78718376 0.3246553 -1.8732101 0.36158386 -0.2698595 0.3253959 6.980161 0.55166084
-1.1802261 -1.1888992 -0.20092395 0.6325354 0.4027889 0.005430895 0.3494626 0.5544869
2.4674127 -1.7011343 -1.0140598 -0.2305389 -0.84728914 -1.3434303 -1.9749496 1.5534954
-0.8494557 -1.1255926 -0.34980097 1.1905247 -0.017958913 -1.8864266 1.4469439 2.9309304
-0.2908113 -2.5829387 -0.15022732 1.3216313 0.38221446 -0.034812987 -0.10130675 -0.48455968
-1.1763132 -0.39820698 0.64629936 0.94399816 -3.221126 0.71383435 -0.64554286 0.28873733
0.68574333 0.91784734 -0.1588317 -0.8830156 2.3900504 0.40783772 0.12720989 -2.7124321
-0.603628 1.13761 0.8661462 2.9485636 1.5391475 -1.620963 -2.1691597 2.513231
0.8244989 -1.4382914 0.78790474 1.4993976 0.9748085 0.92227656 0.69629526 0.99245095
0.71963096 -0.49788836 0.08159548 1.2568191 0.87783843 0.34588343 -0.35345104 1.2884114
0.78928155 -0.2626129 -1.086529 -0.6525154 3.1510048 -0.7404611 0.7105703 0.7444411
1.00267 -0.98418826 0.7323118 1.0296152 0.5058844 -0.3914388 -0.053263325 9.410966
0.47719422 -0.2504032 -0.21438329 2.0045638 -1.0326589 -0.9547392 -0.025861224 0.042714253
-1.3495318 -1.2044619 -0.22147545 -2.1419706 -0.783621 0.074405976 0.7548295 0.021983363
-1.060109 0.84332585 0.34961537 -0.26627022 0.712016 0.22735359 -1.6197273 -0.56418294
-0.026880119 -1.8159475 -0.25255495 1.7321107 -0.12343055 -1.6605743 2.1960046 1.3667786
0.069147885 -1.0684816 3.4031236 -0.42851865 -0.5018829 -1.3387847 -1.4568408 -0.7448477
-0.1302354 0.74655485 -0.3299829 0.798465 -1.0820103 0.7107005 1.1904277 -1.5418648
-1.2898884 -0.24632038 2.1871278 -1.5350347 0.9911058 -0.38286683 -0.7346939 -1.847697
-0.22571242 0.05610192 6.966948 1.4229437 0.4664531 -3.241352 -1.4916029 0.96299726
6.33891 0.4228228 -0.3920867 1.2561197 1.1844069 0.25208828 -0.5582406 2.8805432
-0.44154486 -1.9606671 0.18490879 -0.1951114 -0.6324285 0.656334 -0.4723746 1.3286971
0.79054564 1.5008563 0.44471428 0.14203636 -0.04124803 0.65481853 -2.3621392 -0.7590581
1.0026733 1.9900554 1.2600831 0.055430606 0.6214984 0.4253092 -1.4322819 -0.75998235
0.5870331 0.41161507 -0.81647915 -0.043217294 -0.9827922 0.4017847 0.82969147 0.9790664
-1.3580748 -0.2888096 -0.27601898 1.4467611 0.7117402 -0.37690204 -0.18543918 1.8460134
0.90314484 -1.7363896 -0.9882582 0.043024234 -0.83700955 -1.9068881 0.021545153 0.08969975
-0.29631162 0.42635772 0.90182483 -0.042813648 -0.6053981 0.38671717 -1.784108 -0.1388398
1.4598976 -0.57931644 -3.6709068 -1.3854543 0.3024673 0.6101035 -2.084675 2.3397093
-0.47908926 0.85543996 -1.5033755 1.7529447 -0.4769588 -0.72850084 -1.3945841 1.5145243
-2.0447533 0.8981334 -0.25802338 0.23891477 0.121723615 0.37183997 -1.4965768 0.51185715

fc_1.bias f4 [64]
00000000: e0c5 2740 3fd0 21bf 14b9 15bf ab74 92bf
00000010: 4d9b 793e d608 673f 7473 bbbf 4059 c3bf
00000020: 6976 77bf 37ea 843f 52b8 843f f1af 17be
00000030: 2ee8 553e f41a e2be 46bc d4bf 434e 41bd
00000040: 4f87 0ac0 108c 84bf b78a 0ac0 fe83 97be
00000050: 637e 5c40 e185 aebf ae27 153f 0e20 26c0
00000060: 1ab6 d6be 9db7 df3f 1c7a 0540 9e0d 0240
00000070: 4c57 e8bf e109 eabf 9c75 4cc0 7f95 f8bf
00000080: 5eca 10c0 6cb7 58bf 6786 54bf 56f0 3fbf
00000090: 2cd9 f93e 2b60 aa3f 2134 6f3f 5f02 20bf
000000a0: 297d 5fbe ea63 bcbf de6c dabe b72a bfbf
000000b0: 13e6 e3be 1341 273d 548c eb3e 07a2 3f3f
000000c0: e34b 25c0 0033 593f acca 64bf 39c1 93bf
000000d0: 5c0d 0bc0 207f c1bf 73f1 173f e3c8 d6bf
000000e0: 594c 78bf 1281 0d40 6ffa 5b3f 0938 0d40
000000f0: 18bb 18bf 48b3 bfbf 61d1 1ac0 89c7 9f3f
2.6214523 -0.63208383 -0.5848553 -1.1441854 0.24375649 0.9024786 -1.4644608 -1.5261612
-0.96665055 1.0383977 1.036875 -0.1481321 0.20889351 -0.4416119 -1.6619956 -0.047193777
-2.1645086 -1.0355244 -2.1647165 -0.2959289 3.445214 -1.3634607 0.5826367 -2.5957065
-0.41935807 1.7477909 2.085578 2.0320811 -1.8151641 -1.8284265 -3.1946783 -1.9420623
-2.2623515 -0.8465488 -0.8301758 -0.749761 0.48798501 1.3310598 0.9343892 -0.6250362
-0.21825089 -1.4717991 -0.42661184 -1.493491 -0.4451147 0.040833544 0.460055 0.7485661
-2.5827568 0.84843445 -0.8937175 -1.1543342 -2.1726904 -1.511692 0.593528 -1.6780056
-0.969915 2.2110028 0.85929006 2.206545 -0.5966048 -1.4976587 -2.4190295 1.2482768
