weights/textGenerator_words_2.pt (torch_old, 354690 bytes, 13 tensors)

embedding.weight f4 [713, 32]
0.0 0.0 0.0 0.0 0.0 0.0 0.0 0.0
0.0 0.0 0.0 0.0 0.0 0.0 0.0 0.0
0.0 0.0 0.0 0.0 0.0 0.0 0.0 0.0
0.0 0.0 0.0 0.0 0.0 0.0 0.0 0.0
0.4387328 0.4706194 -0.75726074 -1.2047715 0.23446597 -3.0754406 -0.16243541 0.7966854
2.2584097 1.9063001 0.035138294 0.27029642 0.31215677 -0.018538592 -0.09203613 1.6214057
-0.8043175 0.37350515 -1.7617662 -0.9784201 -1.86213 2.2043407 -0.20662178 -0.20058519
0.76411885 -0.5721793 -0.5793189 -0.1436529 0.17759955 -0.25300258 -0.20198324 0.57816905
-0.9048425 0.36212176 -1.0102613 -0.8027949 -1.7717603 -0.2599484 -1.5287755 -0.36223865
0.3753166 -1.0980935 -0.790584 1.5315971 -0.5313379 -0.5625677 -0.22748661 0.7766336
0.7626791 -0.24496624 0.32298306 -1.0702094 -0.35130554 0.15833867 -0.9887691 -0.37148416
0.6338633 0.30059737 0.25540867 0.12074587 0.15766928 0.2737583 0.8286251 0.30134064
-0.5200418 -1.8835138 -0.17067796 -0.8163243 0.7041877 1.0693521 0.14582472 -0.45464274
-2.2576878 1.004629 -0.58516484 -0.7548129 -1.9627886 -0.33732495 -0.5686744 -1.3102416
0.46688288 -0.67999667 -0.56481475 0.4759617 -0.09724393 2.1520727 -1.8881435 -1.2252444
0.88564056 0.26188153 0.03970395 -0.9915497 0.6148123 -0.38747817 0.87046725 -0.70062125
-1.9456329 4.1268997 -0.29891244 0.8114636 -0.52768487 0.84604615 -0.54570866 2.0216994
-1.8070327 0.06405885 -0.93314636 -0.2347955 -1.1090486 -1.0608549 0.64006376 -0.5554719
-1.0063357 -0.8035923 2.6767204 2.6074862 -1.7825266 -1.5302086 1.1143407 1.2120148
2.2453938 -1.4190696 -0.11840499 0.44046068 1.5408233 0.35770923 -0.07611131 -0.9694511
0.004402748 -0.17344046 1.9093688 -0.9443172 1.0957744 -1.4919189 0.74896747 0.68335307
-0.019920003 -0.5995831 0.36026213 1.6121532 -0.4089558 2.1297932 -0.4195933 1.7849543
0.3925427 1.2582018 -1.0675263 0.2019385 1.7608051 1.1993532 -0.41269574 1.8742836
1.710073 1.7076629 -0.4453344 -0.65246546 -0.3566411 -0.1719605 1.1522787 0.7864097
0.7778728 -0.07259863 0.34553128 1.0077184 -0.7474033 -0.43237975 -0.5219468 0.82887346
-0.91765857 -0.8311916 0.6977029 -1.5315678 -1.5509236 -0.32729676 0.32871523 0.3038263
-0.38682234 1.5133376 0.34412986 -0.9519226 -0.58940876 -0.078355536 0.29947808 -0.012977802
0.6955246 0.38454095 0.25727713 0.2948669 0.63707787 -0.5693109 0.421553 -1.012455
0.9361441 -0.49412686 1.7445991 0.6630193 1.8881088 -0.5798743 1.682935 -0.11678431
-0.19975251 -1.3199733 1.5168456 -1.223972 0.6676969 2.4371636 -0.53336924 1.533919
0.32233804 0.8088455 -0.34100896 1.0881172 2.1905062 1.0502355 -1.914923 1.2570512
-2.2311318 -0.047085565 -0.59442174 0.7651842 -0.5269419 0.4252698 0.2733503 1.4425861
00000000: 0000 0000 0000 0000 0000 0000 0000 0000
00000010: 0000 0000 0000 0000 0000 0000 0000 0000
00000020: 0000 0000 0000 0000 0000 0000 0000 0000
00000030: 0000 0000 0000 0000 0000 0000 0000 0000
00000040: 0000 0000 0000 0000 0000 0000 0000 0000
00000050: 0000 0000 0000 0000 0000 0000 0000 0000
00000060: 0000 0000 0000 0000 0000 0000 0000 0000
00000070: 0000 0000 0000 0000 0000 0000 0000 0000
00000080: 96a1 e03e 07f5 f03e d7db 41bf f435 9abf
00000090: d917 703e 05d4 44c0 7855 26be 93f3 4b3f
000000a0: c989 1040 a401 f43f 2ced 0f3d 4b64 8a3e
000000b0: 03d3 9f3e 3fde 97bc 707d bcbd 398a cf3f
000000c0: c0e7 4dbf 113c bf3e 8e81 e1bf bd79 7abf
000000d0: 475a eebf eb13 0d40 a994 53be 3466 4dbe
000000e0: 4b9d 433f 587a 12bf 3e4e 14bf bf19 13be
000000f0: a8dc 353e 8e89 81be b2d4 4ebe e302 143f
00000100: c2a3 67bf 0668 b93e 3e50 81bf f783 4dbf
00000110: 0bc9 e2bf f517 85be eaae c3bf 5877 b9be
00000120: 7f29 c03e 548e 8cbf b763 4abf 600b c43f
00000130: c305 08bf 7004 10bf 40f2 68be 76d1 463f
00000140: f03e 433f 6ed8 7abe 095e a53e 9ffc 88bf
00000150: 52de b3be 8823 223e f91f 7dbf 2c33 bebe
00000160: dd44 223f e6e7 993e edc4 823e 9c49 f73d
00000170: 0e74 213e 0c2a 8c3e c620 543f 5249 9a3e
00000180: 7621 05bf fb16 f1bf 34c6 2ebe a1fa 50bf
00000190: a545 343f 88e0 883f 1353 153e efc6 e8be
000001a0: f57d 10c0 af97 803f 5dcd 15bf 6b3b 41bf
000001b0: a83c fbbf dbb5 acbe a594 11bf ffb5 a7bf
000001c0: 460b ef3e 4314 2ebf b397 10bf 40b1 f33e
000001d0: d327 c7bd 8fbb 0940 b0ae f1bf cfd4 9cbf
000001e0: 57b9 623f 5615 863e 9ca0 223d 33d6 7dbf
000001f0: 5764 1d3f 8a63 c6be f1d6 5e3f ea5b 33bf
00000200: 800a f9bf 900f 8440 0d0b 99be 14bc 4f3f
00000210: 5b16 07bf 7b96 583f 90b3 0bbf 8663 0140
00000220: d94c e7bf 4931 833d aee2 6ebf 3b6e 70be
00000230: 4ef5 8dbf 18ca 87bf 38db 233f 6833 0ebf
00000240: 9ccf 80bf 3ab8 4dbf 634f 2b40 0ee1 2640
00000250: d529 e4bf e0dd c3bf b7a2 8e3f 4d23 9b3f
00000260: 88b4 0f40 13a4 b5bf 517e f2bd 1084 e13e
00000270: b339 c53f aa25 b73e 3fe0 9bbd f32d 78bf
00000280: ed44 903b 609a 31be 3266 f43f c6be 71bf
00000290: 5642 8c3f 33f7 bebf 55bc 3f3f 3af0 2e3f
000002a0: 462f a3bc 477e 19bf 4774 b83e 095b ce3f
000002b0: a862 d1be 884e 0840 efd4 d6be 6279 e43f
000002c0: 5bfb c83e c20c a13f b4a4 88bf f7c8 4e3e
000002d0: 1062 e13f 6884 993f db4c d3be 86e8 ef3f
000002e0: ace3 da3f b394 da3f df02 e4be fa07 27bf
000002f0: aa99 b6be 6a16 30be de7d 933f 2552 493f
00000300: ac22 473f 97ae 94bd 7ae9 b03e ebfc 803f
00000310: d355 3fbf e160 ddbe 4e9e 05bf 0d31 543f
00000320: aceb 6abf f9c8 54bf a89c 323f 6a0a c4bf
00000330: aa84 c6bf 7193 a7be 5d4d a83e 1f8f 9b3e
00000340: 940d c6be 0cb5 c13f ca31 b03e 33b1 73bf
00000350: 7ee3 16bf de78 a0bd 3155 993e d9a0 54bc
00000360: e60d 323f 8de2 c43e d4b9 833e cbf8 963e
00000370: 8917 233f 5cbe 11bf cbd5 d73e 2098 81bf
00000380: 24a7 6f3f 32fe fcbe 064f df3f a2bb 293f
00000390: 8dad f13f a472 14bf 6a6a d73f 9d2c efbd
000003a0: ec8b 4cbe e3f4 a8bf ff27 c23f 1dab 9cbf
000003b0: 2fee 2a3f 7dfa 1b40 e38a 08bf 7557 c43f
000003c0: 7e09 a53e 8010 4f3f ba98 aebe 6d47 8b3f
000003d0: 4131 0c40 1e6e 863f 321c f5bf 0ee7 a03f
000003e0: ddca 0ec0 cbdc 40bd 062c 18bf 1de3 433f
000003f0: aae5 06bf f7bc d93e 92f4 8b3e a9a6 b83f

lstm_cell_1.weight_ih f4 [128, 32]
-1.1724551 0.7818873 -0.9316883 0.654029 -0.999405 0.21251279 -0.5039395 0.8967864
0.5633781 0.7119 0.40136302 -0.02693397 -0.012115944 0.337987 -0.13127534 -0.19405186
-0.7187278 -0.14022267 0.3699082 -0.7250795 -0.28365448 -0.3912937 0.4092782 0.10223968
0.34513012 -0.022238834 -0.24059774 -0.017580137 -0.886857 0.52453464 0.83587456 -0.41988364
-0.5437495 -0.41446826 -1.928239 0.3118702 -0.16602628 -0.06068959 -0.51272494 0.038327232
1.560653 -0.5473007 0.18190655 -0.06441173 0.5845867 1.0973878 0.3637344 -0.84509474
-0.4265849 0.25951874 -0.32404816 0.8836019 -0.36833543 -0.25745216 0.33597073 0.3199113
-0.07681719 0.34654963 0.6752798 -0.43048936 -0.16252762 1.1974902 0.793543 0.8896902
-0.11655059 -0.45173517 -0.42976755 -0.44330233 1.7008717 -0.6178505 -0.6441786 -0.06309993
-0.96683955 -0.5529412 -1.1701615 0.48732683 0.010460532 1.026903 0.35831192 0.48690647
-0.8587581 -0.26875854 0.23115426 -0.14955345 0.9413564 0.44668153 -0.79280967 -0.7005957
-1.0242146 0.5855216 -1.0661911 -0.661612 -0.3186961 -0.6167649 -0.29961842 0.48345715
0.43579274 0.23309545 -0.10356579 0.66417605 0.08964034 0.33316645 0.5958663 0.47202522
0.33077508 -0.095557004 0.1938896 -1.2227124 0.39105275 -0.0035251428 0.038465522 -0.056440216
-0.8190533 0.69875765 0.2132814 -0.4621114 1.4876932 -0.24721023 -0.36350593 0.7673868
-0.32630226 -0.24752577 -0.9888134 0.45221245 -0.2257132 0.10812686 0.1359329 -0.32625347
0.073897846 -0.6187328 -0.12324045 0.3561591 -0.29573247 -0.43828827 0.028432844 0.51685005
0.88035583 -0.1427904 -0.36356476 0.60170525 0.250107 -1.0283781 -0.84639543 -0.22097486
-0.17332211 0.32714912 0.43870452 0.81182146 -1.299087 0.9155314 1.3203337 0.4358646
-0.257293 -0.39878964 -0.12944745 0.705005 -0.43558013 0.108987145 0.15018941 -0.5904856
0.33698753 -0.61609894 0.2608415 0.14171797 0.4351381 0.34039864 0.024500955 -0.6202208
0.87987113 -1.2629118 0.58590394 0.3791038 -0.6752045 -0.728258 0.7978542 0.6418633
1.0773599 0.25314727 0.51880366 1.2752838 -0.16826971 -0.7860505 -0.35058466 -0.23541228
-1.3975179 -0.20498815 -0.024644943 0.0065399143 -0.1269019 -0.5853852 0.3063062 -0.8617295
-0.4086977 -1.5418398 0.5296385 -0.3318019 -0.2290915 0.008280736 0.3726227 1.8184007
0.03097095 -0.5986155 0.24444248 0.80961293 0.4023465 0.22531568 -0.4381495 0.9356192
0.78692275 0.1372468 -0.7808642 -0.2904898 -0.6294483 1.1081471 -0.67856234 0.32657045
-0.1403545 -0.027725868 -0.8121748 -0.38024497 -0.2988756 -0.12538676 -0.5904214 -0.7608938
-0.25649986 -0.27645773 0.72698253 -0.38213077 -0.13067353 0.65642697 -0.7644382 0.10893913
-0.051445622 -0.31874523 -0.65876377 0.43589696 0.71178734 -0.14049812 -0.30406368 0.39542097
-0.3237774 0.08169512 0.36389852 0.4976324 0.30067 -0.029031323 -0.12538372 0.4877305
0.47256714 -1.0677984 -0.7830402 0.20908073 -0.67627 0.44517413 0.4840977 0.5914555
00000000: 0213 96bf c429 483f 2083 6ebf 726e 273f
00000010: 02d9 7fbf f49c 593e 2e02 01bf cb93 653f
00000020: 8c39 103f 143f 363f 747f cd3e a1a4 dcbc
00000030: f481 46bc a20c ad3e 0b6d 06be 88b5 46be
00000040: 8cfe 37bf 8896 0fbe 9c64 bd3e cf9e 39bf
00000050: 293b 91be a657 c8be ea8c d13e 0a63 d13d
00000060: e5b4 b03e 372e b6bc 415f 76be 3804 90bc
00000070: 0f09 63bf e747 063f e0fb 553f fdfa d6be
00000080: 2b33 0bbf 2f35 d4be 89d0 f6bf 73ad 9f3e
00000090: cb02 2abe a695 78bd f141 03bf 04fd 1c3d
000000a0: 7ac3 c73f e61b 0cbf b645 3a3e 4cea 83bd
000000b0: 79a7 153f 3477 8c3f 653b ba3e 2158 58bf
000000c0: 5669 dabe a4df 843e a4e9 a5be bc33 623f
000000d0: 7696 bcbe c5d0 83be 5b04 ac3e 6acb a33e
000000e0: 5552 9dbd f46e b13e 23df 2c3f 1a69 dcbe
000000f0: a46d 26be 5c47 993f a225 4b3f bdc2 633f
00000100: 13b2 eebd d549 e7be 7e0a dcbe 86f8 e2be
00000110: 2ab6 d93f 732b 1ebf e4e8 24bf 893a 81bd
00000120: cc82 77bf 8e8d 0dbf dac7 95bf e782 f93e
00000130: a762 2b3c 8f71 833f a974 b73e ce4b f93e
00000140: 92d7 5bbf b89a 89be b4b3 6c3e 8a24 19be
00000150: bcfc 703f 71b3 e43e 93f5 4abf 3d5a 33bf
00000160: 7719 83bf bee4 153f f378 88bf 675f 29bf
00000170: 232c a3be 4ee4 1dbf 9667 99be b287 f73e
00000180: 3a20 df3e 93b0 6e3e 4d1a d4bd 7107 2a3f
00000190: 5b95 b73d cb94 aa3e b28a 183f 4aad f13e
000001a0: 5a5b a93e 64b3 c3bd ff8a 463e d781 9cbf
000001b0: 1138 c83e 1506 67bb 068e 1d3d db2d 67bd
000001c0: 7aad 51bf c8e1 323f 7066 5a3e de99 ecbe
000001d0: bb6c be3f ae24 7dbe 731d babe 7673 443f
000001e0: 1711 a7be 6577 7dbe e022 7dbf 6488 e73e
000001f0: 5c21 67be 9d71 dd3d fe31 0b3e b20a a7be
00000200: c157 973d 4665 1ebf 7d65 fcbd 7c5a b63e
00000210: 3f6a 97be 5267 e0be ffeb e83c 4950 043f
00000220: 005f 613f a637 12be 2925 babe 5b09 1a3f
00000230: 060e 803e e5a1 83bf 5fad 58bf 3c47 62be
00000240: 5a7b 31be 1780 a73e e19d e03e 88d3 4f3f
00000250: 7c48 a6bf 4460 6a3f b200 a93f a529 df3e
00000260: e8bb 83be 282e ccbe df8d 04be 357b 343f
00000270: 5c04 dfbe a734 df3d 41cb 193e 102a 17bf
00000280: a189 ac3e a9b8 1dbf 048d 853e 841e 113e
00000290: 6cca de3e bb48 ae3e 3ab6 c83c cac6 1ebf
000002a0: 3c3f 613f 18a7 a1bf cdfd 153f e519 c23e
000002b0: 34da 2cbf 1e6f 3abf 2c40 4c3f 2751 243f
000002c0: eee6 893f 859c 813e 51d0 043f 803c a33f
000002d0: e54e 2cbe 9b3a 49bf d57f b3be eb0f 71be
000002e0: dee1 b2bf 6ae8 51be 31e4 c9bc c74c d63b
000002f0: 92f2 01be cedb 15bf 2bd4 9c3e 4e9a 5cbf
00000300: d340 d1be 025b c5bf 6496 073f f0e1 a9be
00000310: f696 6abe edab 073c 67c8 be3e 5bc1 e83f
00000320: cab6 fd3c de3e 19bf 214f 7a3e cb42 4f3f
00000330: 5c00 ce3e 27b9 663e 2255 e0be bd84 6f3f
00000340: c573 493f 6d8a 0c3e b7e6 47bf 14bb 94be
00000350: 8623 21bf c4d7 8d3f 43b6 2dbf 3e34 a73e
00000360: 17b9 0fbe 5c21 e3bc b0ea 4fbf 78af c2be
00000370: 3906 99be 6365 00be db25 17bf f0c9 42bf
00000380: f353 83be de8b 8dbe 871b 3a3f a5a6 c3be
00000390: 48cf 05be 990b 283f 39b2 43bf 7b1b df3d
000003a0: a5b8 52bd 9332 a3be bea4 28bf e32d df3e
000003b0: b237 363f bdde 0fbe 3cae 9bbe 9e74 ca3e
000003c0: 27c6 a5be c54f a73d e850 ba3e adc9 fe3e
000003d0: 6bf1 993e 19d3 edbc 9764 00be d0b7 f93e
000003e0: 52f4 f13e 9ead 88bf 5375 48bf 4219 563e
000003f0: 0820 2dbf dded e33e a7db f73e a169 173f

lstm_cell_1.weight_hh f4 [128, 32]
0.08385711 -0.66659975 -0.28477508 0.22031048 -0.3073263 0.009600717 -0.6374078 1.3643191
-0.7365419 0.124110244 -1.0990121 -0.067784175 0.25874856 -0.38077918 0.98402524 0.036852065
-0.5609792 0.089220524 0.20111747 -0.90555465 0.26204535 -0.455891 0.25697476 -0.25913024
0.31561342 -0.11320334 0.76773524 -0.9884487 -0.1163799 0.14839621 0.34406617 0.6156138
-0.12774824 -1.0605252 -0.31061524 -0.14195275 0.3167927 -0.17510769 0.699257 -0.13522542
0.124643214 0.120158754 -0.05509147 -0.8117919 -1.2336996 0.048057776 -0.1749989 0.22762851
-0.691475 0.777731 0.336251 0.28578317 -0.43059555 1.0605587 -0.6633567 0.23481241
-0.18602464 -0.06457554 1.2704152 0.45079654 -0.37812582 0.81685346 -0.37417224 -0.09954439
0.28119954 -0.3168103 0.24128903 -0.38444802 0.9431327 -0.13437901 0.5712705 -0.39680362
0.20884566 -1.1576403 0.39364997 0.30849645 -0.111540794 -0.12845325 0.07046525 0.35783973
-0.07254466 -0.51305294 -0.25831273 0.01998331 -0.91784674 0.28307432 0.35352266 -0.3282354
-0.54466975 -0.10884924 -0.50345236 -0.22013523 -0.17609492 -0.34884968 -0.30897874 -0.6304878
0.41545 0.5627673 0.62206477 -0.669568 -0.06326884 -0.11975912 1.1728262 -0.02810569
0.35244197 -0.9848596 0.33182693 0.5072331 -0.8341675 -0.69310313 -0.6045635 0.047533344
0.38916585 0.23203841 -1.1251613 0.33205163 -0.21191336 -0.6291444 0.3858432 -0.47240335
-0.03295022 0.05855256 0.50408584 0.22637531 0.015648862 0.2763104 -0.027411733 -0.71520567
-0.020014284 -0.8988595 -0.8307137 -0.06271207 -0.388431 0.6509504 1.3574933 -0.22068273
0.27448016 -0.21691056 0.6057974 0.5079576 -0.90802014 -0.89230496 -1.5463772 -0.035081875
0.15451512 -0.06037492 0.39081 0.034383405 -1.13971 0.23780012 0.91719884 0.2572633
0.49367964 0.5738346 -0.27196035 0.60806215 -0.8795111 -0.17831473 0.00782877 -0.7032697
-0.3106248 0.23595919 -0.13922521 -0.066858836 0.041160684 -0.15266863 0.619204 -0.031201737
0.54623675 -0.3145574 -0.909176 0.7919279 0.6087773 -0.33203933 -0.28405815 -0.044976417
0.3388624 -0.11069635 0.0020077864 -0.39075807 -1.3787203 -0.8260772 0.6165811 -0.9052524
1.24676 1.1738509 -0.26943296 -0.5382155 0.6645148 0.60067314 0.5394487 -0.8893411
0.14084369 -0.38884172 0.13692749 -0.6437503 0.39003316 -0.27026632 0.6398752 -0.49294877
1.4303554 -0.4608027 0.27903545 -0.42812467 0.3182029 0.29053563 0.6952499 -0.91671926
-0.2759132 0.35341853 0.37877756 -0.5936726 -0.4282604 0.41483667 0.11254481 0.1196108
-0.024755057 2.08686 -0.7143658 -0.13924634 -0.17980726 -0.1488491 0.09743092 -0.07797602
0.14069217 -1.3423533 -0.6206694 0.10319951 0.6655953 0.268193 -0.22930963 -0.7270234
-0.18505377 0.19125152 -0.24724343 0.16064176 -0.4696693 0.3100815 -0.07634321 0.053858712
0.6528901 -0.8787041 0.20947887 -1.5496973 -0.34704465 0.7571263 -0.0048539136 -0.08376045
-0.27755865 0.73680586 -0.6186423 1.1561097 -0.78820676 0.05262012 -0.33772582 0.61699283
00000000: 47bd ab3d 48a6 2abf 0ace 91be 1299 613e
00000010: df59 9dbe 534c 1d3c 282d 23bf 02a2 ae3f
00000020: 038e 3cbf 832d fe3d 6eac 8cbf 6ed2 8abd
00000030: b17a 843e 7df5 c2be 14e9 7b3f 31f2 163d
00000040: 559c 0fbf 40b9 b63d bdf1 4d3e 6ed2 67bf
00000050: cf2a 863e 8c6a e9be 3292 833e b8ac 84be
00000060: 1598 a13e 27d7 e7bd 4c8a 443f f90a 7dbf
00000070: 9658 eebd 2df5 173e 7129 b03e de98 1d3f
00000080: 6fd0 02be 4abf 87bf f608 9fbe 105c 11be
00000090: a732 a23e 6e4f 33be 8202 333f 8878 0abe
000000a0: f144 ff3d cb15 f63d 98a7 61bd 98d1 4fbf
000000b0: dee9 9dbf 3bd8 443d e932 33be 7317 693e
000000c0: 8104 31bf 6119 473f 1729 ac3e 2c52 923e
000000d0: 0577 dcbe 63c0 873f bfd1 29bf aa72 703e
000000e0: 3e7d 3ebe 2e40 84bd f79c a23f cece e63e
000000f0: b599 c1be 4f1d 513f 8193 bfbe eedd cbbd
00000100: 63f9 8f3e f634 a2be 7914 773e 5fd6 c4be
00000110: 2571 713f a79a 09be c93e 123f d829 cbbe
00000120: a3db 553e 8f2d 94bf 7d8c c93e 3ff3 9d3e
00000130: 806f e4bd 4089 03be 1650 903d c536 b73e
00000140: 4b92 94bd 7057 03bf 9141 84be 0ab4 a33c
00000150: 01f8 6abf 1eef 903e ec00 b53e 780e a8be
00000160: 7a6f 0bbf 5aec debd 41e2 00bf 216b 61be
00000170: 3a52 34be 6d9c b2be 7632 9ebe a667 21bf
00000180: ddb5 d43e 8511 103f a33f 1f3f cf68 2bbf
00000190: 1893 81bd 4544 f5bd 2b1f 963f e73d e6bc
000001a0: 4673 b43e c21f 7cbf 38e5 a93e 07da 013f
000001b0: 008c 55bf 356f 31bf acc4 1abf 53b2 423d
000001c0: bf40 c73e 7a9b 6d3e 4905 90bf ac02 aa3e
000001d0: d1ff 58be 9b0f 21bf 3d8d c53e dade f1be
000001e0: cff6 06bd cfd4 6f3d c50b 013f eece 673e
000001f0: 0b32 803c 8f78 8d3e 928e e0bc b817 37bf
00000200: fff4 a3bc a81b 66bf a7a9 54bf 306f 80bd
00000210: 6ee0 c6be afa4 263f 57c2 ad3f a7fa 61be
00000220: aa88 8c3e cd1d 5ebe 8a15 1b3f 8209 023f
00000230: 0274 68bf 196e 64bf b0ef c5bf 03b2 0fbd
00000240: 3639 1e3e b14b 77bd 4018 c83e 9dd5 0c3d
00000250: 04e2 91bf e081 733e 8bcd 6a3f 04b8 833e
00000260: 94c3 fc3e d3e6 123f 633e 8bbe f6a9 1b3f
00000270: a427 61bf 2398 36be 3e44 003c 7c09 34bf
00000280: 370a 9fbe 499f 713e 0e91 0ebe 49ed 88bd
00000290: 1b98 283d 2a55 1cbe 2784 1e3f c99a ffbc
000002a0: 2cd6 0b3f ab0d a1be c2bf 68bf c9bb 4a3f
000002b0: d4d8 1b3f 0f01 aabe 1270 91be 3139 38bd
000002c0: 5f7f ad3e c5b4 e2bd 1195 033b 7111 c8be
000002d0: e879 b0bf cc79 53bf 42d8 1d3f 9fbe 67bf
000002e0: d595 9f3f bf40 963f 1ef3 89be 7ec8 09bf
000002f0: a41d 2a3f b7c5 193f 4f19 0a3f dcab 63bf
00000300: 5439 103e 4316 c7be b836 0c3e d2cc 24bf
00000310: 6db2 c73e 5960 8abe dcce 233f c863 fcbe
00000320: e315 b73f 55ee ebbe bcdd 8e3e 2833 dbbe
00000330: 7eeb a23e 16c1 943e e6fb 313f 1dae 6abf
00000340: 7f44 8dbe 46f3 b43e 22ef c13e edfa 17bf
00000350: f244 dbbe 7965 d43e e57d e63d 82f6 f43d
00000360: 1ecb cabc 1d8f 0540 ade0 36bf 9896 0ebe
00000370: 651f 38be e66b 18be dd89 c73d e4b1 9fbd
00000380: 9c11 103e 3cd2 abbf 31e4 1ebf 445a d33d
00000390: 7464 2a3f 9850 893e 25d0 6abe 351e 3abf
000003a0: bc7e 3dbe 70d7 433e 622d 7dbe 467f 243e
000003b0: 7f78 f0be 01c3 9e3e d459 9cbd f49a 5c3d
000003c0: ce23 273f c0f2 60bf a181 563e 7b5c c6bf
000003d0: d6af b1be 07d3 413f 940d 9fbb 998a abbd
000003e0: 2b1c 8ebe 4f9f 3c3f 575f 1ebf 67fb 933f
000003f0: ebc7 49bf 3288 573d 66ea acbe 3ef3 1d3f

lstm_cell_1.bias_ih f4 [128]
0.5936743 0.039153542 0.025395788 0.18327099 0.69586414 0.34464872 0.33686355 0.7621892
1.245863 0.99253273 0.5898256 0.22510682 0.5495041 0.7626101 0.44932067 0.28023764
0.9119786 0.686423 0.4632908 0.14281929 1.1416739 0.42508358 0.059133954 0.551297
0.29467613 0.18377215 0.23223224 0.86793566 0.7301131 0.2636931 0.2566214 0.282809
-1.2020974 -0.83423007 -1.1390078 -1.0008788 -1.5201069 -0.8443131 -0.7852912 -1.163844
-0.6646862 -0.8527565 -1.2746607 -0.87196845 -1.0920396 -1.55138 -0.90696293 -1.1479868
-0.9709554 -0.61153847 -1.3845861 -1.2066019 -1.3181932 -0.8617789 -1.3308814 -0.91766614
-1.3508216 -1.7486902 -1.1919893 -1.0938935 -1.1816565 -1.0973836 -1.0796242 -1.4511461
0.51655614 -0.1527236 -0.026588585 -0.32475045 -0.106222 -0.23717298 -0.13793173 -0.11847161
0.5027717 -0.0019760784 -0.43266997 -0.036624458 -0.867884 0.35516745 0.13126677 0.0032059755
0.1198427 0.028112136 -0.011472026 -0.44001228 -0.27758268 -0.0814129 -0.39610243 -0.20864159
0.010389281 0.1815553 -0.01612759 0.14728658 0.18810242 0.47643808 0.3944596 0.019287193
0.12976669 0.042852815 -0.052639697 0.30432254 -0.16849314 0.144817 -0.08448703 -0.14440522
-0.2697658 0.5549922 -0.45741868 0.2768128 -0.5281631 -0.072398804 0.357616 -0.12669551
0.2896111 0.31700456 0.38415158 -0.32506943 -0.2462077 -0.2595242 -0.17730461 -0.43365607
0.5694979 0.13322192 0.66729087 0.008541034 0.46905947 0.114199705 0.14477022 0.19874533
00000000: 0afb 173f 775f 203d d40a d03c 64ab 3b3e
00000010: 2724 323f cc75 b03e 6179 ac3e d51e 433f
00000020: 7078 9f3f a016 7e3f cffe 163f 6782 663e
00000030: 4dac 0c3f 6a3a 433f 5c0d e63e 4f7b 8f3e
00000040: 6e77 693f 6bb9 2f3f 7434 ed3e 383f 123e
00000050: 5f22 923f 8ea4 d93e 7236 723d cd21 0d3f
00000060: cadf 963e c42e 3c3e 4ace 6d3e 0831 5e3f
00000070: b1e8 3a3f c802 873e e163 833e 57cc 903e
00000080: 54de 99bf 1a90 55bf 02cb 91bf cc1c 80bf
00000090: dd92 c2bf e724 58bf d808 49bf d7f8 94bf
000000a0: e028 2abf 404e 5abf 1528 a3bf 5339 5fbf
000000b0: f4c7 8bbf 9f93 c6bf b92e 68bf 3bf1 92bf
000000c0: 8890 78bf c98d 1cbf 1e3a b1bf ee71 9abf
000000d0: 8eba a8bf 8b9d 5cbf 525a aabf 2bec 6abf
000000e0: b9e7 acbf 15d5 dfbf 1b93 98bf b404 8cbf
000000f0: 8540 97bf 1177 8cbf 2031 8abf 28bf b9bf
00000100: 063d 043f 9363 1cbe 4ed0 d9bc b145 a6be
00000110: ec8a d9bd 79dd 72be fa3d 0dbe 3ea1 f2bd
00000120: a5b5 003f 1881 01bb eb86 ddbe 8703 16bd
00000130: a52d 5ebf 82d8 b53e cc6a 063e 581b 523b
00000140: 1770 f53d 6c4b e63c 2af5 3bbc 4a49 e1be
00000150: 511f 8ebe cebb a6bd f0cd cabe 24a6 55be
00000160: ce37 2a3c a2e9 393e 021e 84bc 4bd2 163e
00000170: ec9d 403e b1ef f33e 9cf6 c93e 2d00 9e3c
00000180: 8fe1 043e 6f86 2f3d b99c 57bd 2ad0 9b3e
00000190: 7789 2cbe e84a 143e 8907 adbd f6de 13be
000001a0: be1e 8abe f813 0e3f c832 eabe 68ba 8d3e
000001b0: b235 07bf d345 94bd 7219 b73e 78bc 01be
000001c0: e847 943e 6c4e a23e 84af c43e 806f a6be
000001d0: df1d 7cbe 5be0 84be 578f 35be 2b08 debe
000001e0: 9dca 113f 546b 083e 93d3 2a3f b1ef 0b3c
000001f0: 9028 f03e 89e1 e93d a53e 143e e583 4b3e

lstm_cell_1.bias_hh f4 [128]
0.6930175 0.14267549 -0.12676618 0.4356654 0.87812036 0.28289658 0.082725815 0.49117076
1.1469657 1.0936748 0.56602126 0.30097213 0.7676194 1.0489539 0.38648546 0.22444463
1.1342002 0.85883385 0.48330668 0.30440947 1.1059579 0.6998024 -0.090293385 0.5322146
0.5092851 0.30547705 0.1653418 0.65306437 0.5141043 0.088010035 0.56494033 0.39076814
-0.9799658 -0.9758268 -0.89262205 -1.0126595 -1.356877 -0.9198887 -0.7986952 -1.0657295
-0.7086327 -0.9145309 -1.2159861 -0.89723057 -0.9480224 -1.2932798 -0.8342429 -1.1733195
-0.8351568 -0.8121783 -1.4805701 -1.3248616 -1.0691681 -0.9762128 -1.3759987 -0.87939733
-1.4689254 -1.6016618 -1.1798202 -1.2418946 -1.1679785 -1.080364 -0.9019613 -1.3932154
0.50772583 -0.05975247 -0.12945841 -0.3909407 -0.025627399 -0.23260804 0.060708873 -0.010688597
0.31550547 -0.24879797 -0.42988047 -0.24483109 -0.84079486 0.48000395 0.104729705 -0.07311533
-0.04274844 -0.20742787 0.23633054 -0.5096735 -0.07780167 0.11812144 -0.34746975 -0.14316379
0.08893499 0.10156118 -0.023587173 0.2550796 -0.013655955 0.45353505 0.2347492 0.06107658
0.3818602 -0.039286617 0.14669329 0.4297895 -0.10160534 0.45952415 0.05818877 -0.10491492
-0.14529996 0.49060708 -0.5341134 0.22552477 -0.33184037 -0.1703626 0.14717834 -0.22625448
0.29198804 0.43905324 0.17044409 -0.14290899 -0.12877575 -0.322871 -0.05187666 -0.51297027
0.25857157 0.2902992 0.64759475 0.10926664 0.22610201 0.36670613 0.27145463 0.04077607
00000000: 9869 313f 8619 123e fece 01be 890f df3e
00000010: 7fcc 603f d2d7 903e 276c a93d bc7a fb3e
00000020: c6cf 923f 89fd 8b3f c5e6 103f 0519 9a3e
00000030: b482 443f 1f44 863f 6ce1 c53e d0d4 653e
00000040: 792d 913f 89dc 5b3f f973 f73e 8fdb 9b3e
00000050: 0790 8d3f 4026 333f bdeb b8bd 373f 083f
00000060: 8260 023f 7d67 9c3e 5c4f 293e 3a2f 273f
00000070: 579c 033f 9b3e b43d ee9f 103f c312 c83e
00000080: 0adf 7abf c9cf 79bf e182 64bf d49e 81bf
00000090: 25ae adbf d37d 6bbf 4a77 4cbf d369 88bf
000000a0: f468 35bf b21e 6abf 6fa5 9bbf e7b0 65bf
000000b0: 99b1 72bf 318a a5bf f190 55bf 552f 96bf
000000c0: d6cc 55bf ebea 4fbf 5283 bdbf 1195 a9bf
000000d0: 80da 88bf 15e9 79bf ba20 b0bf 2f20 61bf
000000e0: bf05 bcbf 4103 cdbf 5904 97bf 67f6 9ebf
000000f0: 5280 95bf 5e49 8abf f0e6 66bf e254 b2bf
00000100: 52fa 013f 02bf 74bd bf90 04be 6129 c8be
00000110: 8df0 d1bc cd30 6ebe dea9 783d 3a1f 2fbc
00000120: ef89 a13e e5c4 7ebe 4b19 dcbe 00b5 7abe
00000130: 553e 57bf 14c3 f53e 877c d63d 7dbd 95bd
00000140: fd18 2fbd f967 54be a200 723e f679 02bf
00000150: 7b56 9fbd a7e9 f13d 8ee7 b1be 8799 12be
00000160: 8c23 b63d 4fff cf3d e339 c1bc cb99 823e
00000170: 3abd 5fbc bf35 e83e 1862 703e 702b 7a3d
00000180: 2e83 c33e 01eb 20bd c436 163e 5f0d dc3e
00000190: 7616 d0bd c046 eb3e 5957 6e3d a2dd d6bd
000001a0: 83c9 14be da30 fb3e a8bb 08bf f7ef 663e
000001b0: fbe6 a9be 8973 2ebe ebb5 163e 41af 67be
000001c0: 757f 953e 96cb e03e e588 2e3e bc56 12be
000001d0: cadd 03be 594f a5be 9f7c 54bd 0552 03bf
000001e0: 7e63 843e 19a2 943e c5c8 253f 30c7 df3d
000001f0: 4987 673e e8c0 bb3e 1afc 8a3e cf04 273d

lstm_cell_2.weight_ih f4 [128, 32]
-0.030928079 0.3200595 0.9816509 -0.5518916 0.19532247 -1.3856019 0.7772148 0.12393698
0.5829239 -1.2195287 0.5526983 -0.46762305 -0.5182366 0.26676002 -1.0481354 -0.010807473
0.8620765 1.0273373 -0.6189702 1.5903773 0.27873677 -0.9866913 2.0479681 -0.75607747
0.11735977 0.6959009 0.06504651 -0.09408081 0.47134164 -0.38103047 -0.230493 -0.24909982
-0.750523 -0.48057845 -0.2145286 0.662043 0.49045324 0.8483785 -1.2654871 -0.2016867
-1.1992595 1.4501994 0.6024747 -0.54443336 -0.393812 -0.05940674 1.3916732 0.14090398
-0.19557956 0.15726778 0.24811268 0.08106107 -0.36297473 0.4088105 0.068026185 -0.5641452
-0.31110927 -0.37529218 -0.0011796772 -1.2419782 -0.025944455 -0.07034539 -0.09377864 -0.6648607
0.50898975 0.30238888 -0.24814121 0.46348608 0.07391885 0.36464366 1.5760168 -0.0012536386
-1.798166 0.024669774 -0.16999212 0.23008405 0.2852165 0.57576805 -0.16986114 -0.430979
1.5738667 -0.4349993 -0.6378485 0.4764742 -0.09914767 -0.04171652 0.5417618 -1.5176114
0.14507204 -0.70988065 0.07431529 -0.84399337 0.37638602 -0.2647267 0.5414172 0.16827981
-0.8159349 -0.13268343 -1.1746676 -0.8896999 -0.31762186 0.31658903 -0.014833373 -0.6568132
-0.3504474 1.4985242 0.23950717 1.4828573 0.2135214 -0.47652254 -0.1548162 -0.43054616
0.25346088 -0.415708 0.792025 -1.3445182 -0.9577531 -1.8337871 0.35230055 -0.08929627
0.5346873 -0.6169716 1.3386065 0.37594458 -0.29940844 -0.8643732 0.050249584 0.52420294
0.06954896 -1.4917898 0.11623423 0.5017239 0.8983608 0.67145 1.6326762 1.5467929
-2.16277 -0.6465282 -0.46228492 0.45962015 1.6247407 0.3725636 -0.06175364 -1.4269521
-0.4135279 0.21214443 0.42871726 -0.37614027 1.0566604 0.03812349 -0.6338412 -0.49227694
0.1863442 0.016846055 0.43014124 -1.0978098 0.45637313 -0.9687668 0.44936746 -0.8791589
-0.7230069 1.0028563 0.10278069 -0.2758828 0.4868817 0.6469246 -0.8094078 -0.114232644
-0.32368204 0.2536897 -0.7828875 -0.22806717 0.5368651 0.5052446 1.3746578 0.8850609
-0.09481891 -1.4472432 -0.35344803 0.54217255 0.67896587 -0.47278547 -0.5307184 0.90564483
1.1171553 -0.710997 0.82836306 0.43360192 0.105319105 -0.059559457 1.4357246 1.1973741
-0.63004977 0.0073705344 -0.29689512 0.5720012 0.18818167 0.98075753 1.2895665 -1.0706433
-1.0053792 0.29146174 -0.3246689 0.7553353 1.5382327 1.1365813 0.30053583 -0.10827458
-0.108019456 -0.32040295 0.5742708 -0.28294137 -0.37220964 -2.4793408 -0.52585953 -1.113045
0.524002 0.6963263 -0.42443138 -0.05855907 -0.10597791 0.58894974 0.4109381 0.7346085
-0.83726645 -1.6999733 -0.4515617 1.697302 2.0628238 -0.14279965 -0.40584266 -2.8327127
-0.4555806 0.9712135 0.89057636 -0.13213691 -0.15915293 -1.2942204 0.04564352 -0.56823003
1.6818589 -0.8737591 1.0176153 1.577018 0.9943891 -1.2899005 -0.32583216 0.23634706
0.66496426 -0.4200556 -1.1093612 1.5884259 -0.6158008 -0.9088126 0.45648313 -1.0482079
00000000: e25c fdbc d7de a33e 794d 7b3f c548 0dbf
00000010: 9d02 483e 675b b1bf 8df7 463f acd2 fd3d
00000020: 803a 153f 8419 9cbf a37d 0d3f 4a6c efbe
00000030: 27ab 04bf c594 883e 4d29 86bf d411 31bc
00000040: 0cb1 5c3f ca7f 833f d574 1ebf 7c91 cb3f
00000050: 96b6 8e3e cd97 7cbf e911 0340 4b8e 41bf
00000060: 525a f03d 9026 323f 1b37 853d 71ad c0bd
00000070: b153 f13e 6d16 c3be 5b06 6cbe 0614 7fbe
00000080: 4622 40bf 610e f6be 63ad 5bbe a67b 293f
00000090: b01c fb3e 552f 593f 7bfb a1bf f586 4ebe
000000a0: 5681 99bf 22a0 b93f c83b 1a3f fc5f 0bbf
000000b0: baa1 c9be 7b54 73bd 5922 b23f 2249 103e
000000c0: 0246 48be ce0a 213e 4011 7e3e 5903 a63d
000000d0: d3d7 b9be 9c4f d13e 5051 8b3d d26b 10bf
000000e0: b749 9fbe 4c26 c0be 669f 9aba 24f9 9ebf
000000f0: 7789 d4bc 3e11 90bd 040f c0bd 5034 2abf
00000100: 274d 023f b7d2 9a3e bb18 7ebe 0c4e ed3e
00000110: c462 973d 93b2 ba3e ebba c93f 2251 a4ba
00000120: 4e2a e6bf 4418 ca3c 6a12 2ebe 279b 6b3e
00000130: e607 923e 8965 133f 14f0 2dbe 48a9 dcbe
00000140: 7774 c93f 3ab8 debe 0a4a 23bf 6df4 f33e
00000150: ef0d cbbd f1de 2abd e7b0 0a3f 1741 c2bf
00000160: c48d 143e bdba 35bf 9d32 983d f30f 58bf
00000170: abb5 c03e 428a 87be 519a 0a3f 8b51 2c3e
00000180: 1ce1 50bf 2ade 07be 825b 96bf 5fc3 63bf
00000190: 559f a2be f517 a23e ad07 73bc e924 28bf
000001a0: d76d b3be a4cf bf3f 5e41 753e 45ce bd3f
000001b0: 5ba5 5a3e c3fa f3be 2388 1ebe 8c70 dcbe
000001c0: a0c5 813e aed7 d4be 27c2 4a3f 2c19 acbf
000001d0: 4f2f 75bf 89b9 eabf bd60 b43e f6e0 b6bd
000001e0: 44e1 083f daf1 1dbf 7557 ab3f cf7b c03e
000001f0: 104c 99be 9047 5dbf 82d2 4d3d 2a32 063f
00000200: af6f 8e3d f8f2 bebf 360c ee3d fa70 003f
00000210: f9fa 653f 26e4 2b3f 89fb d03f 4ffd c53f
00000220: d36a 0ac0 df82 25bf 9cb0 ecbe 5553 eb3e
00000230: 81f7 cf3f a8c0 be3e 63f1 7cbd 5ea6 b6bf
00000240: eeb9 d3be 643c 593e d480 db3e 7595 c0be
00000250: a640 873f 6027 1c3d 6b43 22bf b90b fcbe
00000260: 04d1 3e3e bd00 8a3c 793b dc3e 0885 8cbf
00000270: bda9 e93e 1a01 78bf 7e13 e63e 8f10 61bf
00000280: fb16 39bf 985d 803f af7e d23d 8340 8dbe
00000290: 8f48 f93e da9c 253f 5935 4fbf cef2 e9bd
000002a0: a7b9 a5be 9ee3 813e 516b 48bf 718a 69be
000002b0: fe6f 093f b657 013f c9f4 af3f 5a93 623f
000002c0: 6b30 c2bd 443f b9bf 24f7 b4be d2cb 0a3f
000002d0: b5d0 2d3f f010 f2be 29dd 07bf 57d8 673f
000002e0: f2fe 8e3f e603 36bf 9a0f 543f 1201 de3e
000002f0: 8bb1 d73d 9ef4 73bd d3c5 b73f 8e43 993f
00000300: f14a 21bf 8684 f13b a302 98be ac6e 123f
00000310: b2b2 403e ed12 7b3f 8410 a53f d70a 89bf
00000320: 44b0 80bf 793a 953e 013b a6be a75d 413f
00000330: cfe4 c43f 7f7b 913f d5df 993e 10bf ddbd
00000340: 4e39 ddbd db0b a4be 6903 133f b1dd 90be
00000350: 4392 bebe 85ad 1ec0 bb9e 06bf 4278 8ebf
00000360: ff24 063f 7142 323f 124f d9be a3db 6fbd
00000370: f20a d9bd 69c5 163f 7b66 d23e 4d0f 3c3f
00000380: 1857 56bf ba98 d9bf 1833 e7be 3141 d93f
00000390: 4e05 0440 123a 12be 9cca cfbe 2a4b 35c0
000003a0: dc41 e9be 73a1 783f d0fc 633f e64e 07be
000003b0: fcf8 22be 04a9 a5bf b3f4 3a3d 8677 11bf
000003c0: 2747 d73f adae 5fbf 3841 823f badb c93f
000003d0: 4990 7e3f 761b a5bf 79d3 a6be f704 723e
000003e0: 193b 2a3f 8711 d7be 8cff 8dbf 8a51 cb3f
000003f0: 1fa5 1dbf f1a7 68bf 28b8 e93e ad2b 86bf

lstm_cell_2.weight_hh f4 [128, 32]
0.22219197 0.87355125 -0.36091346 0.57619464 -0.036575966 0.5150782 -0.2283023 0.012999443
-0.18983285 0.13298792 0.41255915 -0.67996204 0.29093736 0.730956 0.29126874 -0.054374848
-0.19145744 0.4740326 0.1342416 0.5663344 0.17622615 0.17472702 -0.197231 0.47273692
-0.16883375 -0.43508708 -0.33765492 0.30241525 -0.09437152 -0.2981482 0.17946118 0.96375126
-0.45011562 -0.12086405 0.3648395 0.46916506 0.030205121 -1.0715592 0.33894634 -0.11107836
-0.20575328 -0.36475018 -0.8002605 -0.31147382 -0.3691471 -0.76970655 -0.14814436 0.06614553
0.21201052 0.31609815 -0.6412408 -0.69369483 -0.60524577 -0.10012527 0.44735396 0.5189464
-0.045974627 -0.38998777 -0.9720274 -0.5781393 0.14137302 -0.24961995 -0.042195067 0.07271419
-0.15072423 0.25082025 -0.39314675 0.09619803 0.5369586 0.70919013 -0.21328913 0.30310917
-0.09242454 -0.30928677 -0.3974324 -0.47633392 -0.50407314 0.30099282 -0.24296933 0.10371358
0.0025598058 0.29070064 0.669288 -0.57299083 -0.45495838 0.6841681 -0.026313484 0.03946212
-0.37701535 -0.4106857 -0.358492 -0.67143404 0.038737196 -0.056572963 0.32325697 -0.5902583
0.5255298 -0.37303594 0.0346625 0.7218567 0.050787546 0.23923011 0.6977653 0.3021957
0.8932833 -0.36554644 0.5824923 -0.10442536 -0.18824777 0.050726224 0.6218788 0.23029833
-0.449545 -0.15458758 0.5031503 -0.24196 0.19841152 0.4584557 0.21003142 -0.032255758
-0.07574245 0.6911045 -0.18739986 -0.45526025 -0.10092806 -0.048420273 -0.19762044 -0.11511118
-0.34762648 -0.5567377 -0.78861874 0.14165908 -0.3568035 0.14342074 -0.14523359 -0.30057415
0.18719423 -0.56206864 -0.3102675 -0.39352188 -0.13629496 -0.10516496 -0.13188751 0.018149542
-0.27439034 0.6202142 0.113851346 -0.17602849 0.031544037 0.5494748 -0.04594547 0.48719618
-0.0047838744 -0.25963 -0.7224228 -0.41990802 0.14950116 0.17188455 0.19410981 -0.39874622
0.3283587 0.58167094 -0.4418541 0.9183432 0.8220133 0.30301353 0.12307954 -0.3225397
0.73747355 0.88959444 -0.016143432 0.734916 0.38397744 -0.0040008146 0.19395041 -0.48990536
0.21105103 -0.16187756 -0.5722214 -0.0005080998 0.22390486 -0.25463113 0.008988792 -0.7483066
1.0629923 -0.5843912 0.3651864 0.07623273 0.15382624 0.016441692 -1.1311562 -0.7690034
-0.10260489 0.04838206 -0.8134195 -0.55899906 0.02056494 0.009269682 0.35580868 0.1639743
-0.005256543 -0.2629463 -0.65177697 -0.29529634 -0.17514403 -0.42606 0.03760382 -0.084053755
-0.29147744 -0.22829613 0.12870523 0.1181979 -0.55652297 -0.3796483 -0.25993693 0.33573836
0.13362485 -0.46911985 -0.2985235 -0.79565424 -0.031661876 0.9022322 0.2720173 -0.044887487
0.15248947 -0.020942422 0.60946494 0.49873957 0.62722707 -1.083277 -1.171884 -0.08165155
-0.011681873 0.45028353 -0.552681 -0.08511078 0.8133463 -0.069701 -0.07669883 0.29191747
0.47540197 0.75030684 -1.6517158 -0.021513479 -0.70220727 -0.57122016 1.0128896 0.43574402
0.2379684 0.7729186 0.15676121 -0.353337 -0.19808945 -0.34509528 -0.42520642 -0.36961415
00000000: 4b86 633e 0ea1 5f3f a6c9 b8be 7e81 133f
00000010: aed0 15bd 2adc 033f 14c8 69be 9efb 543c
00000020: 8b63 42be fc2d 083e f43a d33e fe11 2ebf
00000030: bef5 943e ef1f 3b3f 2d21 953e 29b8 5ebd
00000040: 6b0d 44be 67b4 f23e a176 093e 4bfb 103f
00000050: a174 343e a4eb 323e ecf6 49be 930a f23e
00000060: c1e2 2cbe bcc3 debe 1be1 acbe 2cd6 9a3e
00000070: db45 c1bd e2a6 98be acc4 373e 67b8 763f
00000080: 8e75 e6be 9287 f7bd 3ecc ba3e 6736 f03e
00000090: bb70 f73c da28 89bf 608a ad3e 0d7d e3bd
000000a0: fdb0 52be 89c0 babe dfdd 4cbf 7f79 9fbe
000000b0: d900 bdbe 7d0b 45bf 28b3 17be 4f77 873d
000000c0: 4919 593e 9ed7 a13e 5b28 24bf fc95 31bf
000000d0: 63f1 1abf 7a0e cdbd 940b e53e acd9 043f
000000e0: e44f 3cbd 7aac c7be cad6 78bf f000 14bf
000000f0: 17c4 103e 5f9c 7fbe bcd4 2cbd 2deb 943d
00000100: 7457 1abe 836b 803e 884a c9be 7903 c53d
00000110: 1e76 093f 7c8d 353f 7768 5abe 2031 9b3e
00000120: 1449 bdbd d65a 9ebe 427c cbbe 0ae2 f3be
00000130: f00a 01bf bb1b 9a3e f4cc 78be c967 d43d
00000140: 6ac2 273b b7d6 943e 7556 2b3f 87af 12bf
00000150: 4ef0 e8be a425 2f3f 608f d7bc 08a3 213d
00000160: 2808 c1be 6545 d2be 438c b7be 1ae3 2bbf
00000170: e5aa 1e3d 0db9 67bd f081 a53e 2b1b 17bf
00000180: 1f89 063f 91fe bebe 44fa 0d3d 9acb 383f
00000190: 9a06 503d bdf8 743e bfa0 323f 65b9 9a3e
000001a0: 37ae 643f e728 bbbe 371e 153f f7dc d5bd
000001b0: 06c4 40be 4dc6 4f3d 7333 1f3f 53d3 6b3e
000001c0: c32a e6be 354c 1ebe 75ce 003f 5dc4 77be
000001d0: 642c 4b3e b5ba ea3e 7a12 573e 9d1e 04bd
000001e0: dc1e 9bbd 39ec 303f c0e5 3fbe df17 e9be
000001f0: 5fb3 cebd 5654 46bd 035d 4abe 69bf ebbd
00000200: 19fc b1be 5d86 0ebf ebe2 49bf 140f 113e
00000210: f3ae b6be e3dc 123e 1db8 14be dbe4 99be
00000220: d8af 3f3e bbe3 0fbf 62db 9ebe b37b c9be
00000230: e890 0bbe ba60 d7bd 850d 07be 59ae 943c
00000240: e47c 8cbe 5cc6 1e3f e52a e93d d040 34be
00000250: 5234 013d 61aa 0c3f 5131 3cbd c771 f93e
00000260: 0cc2 9cbb 39ee 84be b3f0 38bf 2ffe d6be
00000270: d516 193e 8102 303e b9c4 463e 7728 ccbe
00000280: a21e a83e 63e8 143f b33a e2be 8a18 6b3f
00000290: 776f 523f 9724 9b3e 2011 fc3d ec23 a5be
000002a0: 11cb 3c3f 76bc 633f 3b3f 84bc 7423 3c3f
000002b0: b198 c43e 4419 83bb f09a 463e e0d4 fabe
000002c0: c31d 583e 3bc3 25be 1a7d 12bf 0032 05ba
000002d0: 5147 653e 035f 82be ba45 133c 0591 3fbf
000002e0: 2210 883f a99a 15bf b6f9 ba3e e81f 9c3d
000002f0: a084 1d3e bab0 863c bac9 90bf 68dd 44bf
00000300: 8322 d2bd 442c 463d 433c 50bf 901a 0fbf
00000310: ce77 a83c dddf 173c 8e2c b63e e1e8 273e
00000320: 143f acbb e6a0 86be dbda 26bf 1531 97be
00000330: f558 33be 8924 dabe 7706 1a3d 6024 acbd
00000340: 883c 95be 76c6 69be 4ecb 033e be11 f23d
00000350: 4a78 0ebf 4361 c2be 7416 85be e6e5 ab3e
00000360: f4d4 083e 7a30 f0be 12d8 98be ffaf 4bbf
00000370: e2af 01bd b1f8 663f da45 8b3e f1db 37bd
00000380: 3326 1c3e 718f abbc e505 1c3f cb5a ff3e
00000390: f491 203f d2a8 8abf 4b00 96bf ee38 a7bd
000003a0: 5465 3fbc 908b e63e 817c 0dbf 904e aebd
000003b0: 7737 503f 66bf 8ebd 4714 9dbd 3576 953e
000003c0: e367 f33e 1c14 403f 6c6b d3bf 093d b0bc
000003d0: dbc3 33bf 7c3b 12bf 5ea6 813f d719 df3e
000003e0: fdad 733e fedd 453f 0386 203e 96e8 b4be
000003f0: f6d7 4abe 54b0 b0be a8b4 d9be 113e bdbe

lstm_cell_2.bias_ih f4 [128]
1.4623619 0.67762315 0.5875993 1.1780218 0.7644438 1.178041 0.78696674 0.3348089
1.3572977 1.5868099 0.41650343 0.75502586 1.3305153 0.83158237 1.5836918 1.1369777
0.96716225 1.1810414 0.5018873 1.0690963 0.9009646 1.244868 1.0884393 1.7467505
1.459299 1.6833841 0.6093008 0.91343135 1.024075 1.366484 1.1987877 1.8688436
-0.95107746 -0.5109059 -1.2877145 -1.3165717 -1.0082638 -1.0506436 -0.7164812 -1.0522327
-2.2336476 -1.6678866 -1.8234152 -0.8512098 -1.2102565 -0.61214465 -1.4105766 -0.719094
-0.6704728 -1.4719206 -1.0704945 -0.8882655 -1.6602724 -0.9733739 -1.3832545 -1.0089606
-1.0263884 -0.92941064 -0.94161034 -0.59298563 -1.2698001 -1.7824934 -1.2747808 -1.3876787
0.054264292 -0.3079788 -0.08426585 0.05710919 -0.15261516 0.056219336 0.10123701 -0.6429614
0.16063869 -0.068826586 0.202202 -0.1308936 -0.18177387 0.028462388 0.012381922 0.21327922
0.06941383 -0.04145699 -0.15982233 0.04323377 0.049630504 -0.01751872 -0.5151356 0.026608916
0.014907221 -0.20741247 0.0028903545 0.9533195 -0.14233163 0.103094555 -0.046011753 -0.1315574
1.0060939 0.5334936 -0.07046839 0.5660152 0.533128 1.1697838 0.7196979 -0.046636958
0.8582506 1.4933119 0.13434012 1.1224241 1.0471975 1.1182681 0.9549291 1.0243081
1.2066157 1.2034651 0.7404831 1.1431565 1.5779085 1.6421108 0.4752108 0.9094335
1.4289967 0.85140926 1.1173671 -0.69998306 0.8321027 0.86121076 1.3739152 1.1456114
00000000: ad2e bb3f b678 2d3f e86c 163f 6bc9 963f
00000010: 97b2 433f 0cca 963f a776 493f 126c ab3e
00000020: eebb ad3f 961c cb3f f03f d53e 6049 413f
00000030: 534e aa3f 95e2 543f 6ab6 ca3f 7c88 913f
00000040: f297 773f 5d2c 973f b07b 003f 26d8 883f
00000050: 9ea5 663f d657 9f3f fb51 8b3f 8595 df3f
00000060: 4fca ba3f 2179 d73f 23fb 1b3f a3d6 693f
00000070: e414 833f f3e8 ae3f e071 993f 4436 ef3f
00000080: d079 73bf bbca 02bf d4d3 a4bf 6c85 a8bf
00000090: ca0e 81bf 7d7b 86bf 506b 37bf 90af 86bf
000000a0: 15f4 0ec0 4f7d d5bf ab65 e9bf e3e8 59bf
000000b0: afe9 9abf 83b5 1cbf c68d b4bf 8b16 38bf
000000c0: 1ba4 2bbf e567 bcbf f705 89bf 5e65 63bf
000000d0: ce83 d4bf 082f 79bf 7c0e b1bf 9f25 81bf
000000e0: b260 83bf dbed 6dbf 600d 71bf e8cd 17bf
000000f0: cf88 a2bf be28 e4bf 042c a3bf 759f b1bf
00000100: 3c44 5e3d 66af 9dbe 9393 acbd 53eb 693d
00000110: 2647 1cbe 3f46 663d 5955 cf3d 1e99 24bf
00000120: 787e 243e f4f4 8cbd 0b0e 4f3e f908 06be
00000130: ee22 3abe f429 e93c 8cdd 4a3c de65 5a3e
00000140: d728 8e3d cece 29bd 77a8 23be e515 313d
00000150: 5b49 4b3d 6b83 8fbc eddf 03bf f1fa d93c
00000160: 6b3d 743c ef63 54be 1a6c 3d3b bf0c 743f
00000170: 62bf 11be 3d23 d33d d276 3cbd fcb6 06be
00000180: afc7 803f 0993 083f bb51 90bd 5fe6 103f
00000190: 147b 083f 7abb 953f 1f3e 383f 6506 3fbd
000001a0: 50b6 5b3f d824 bf3f 7590 093e 98ab 8f3f
000001b0: 910a 863f 6923 8f3f 3c76 743f 871c 833f
000001c0: 6272 9a3f 250b 9a3f 4d90 3d3f f452 923f
000001d0: e8f8 c93f b030 d23f d44e f33e a2d0 683f
000001e0: 5de9 b63f f5f5 593f e305 8f3f 1732 33bf
000001f0: af04 553f 4f78 5c3f 74dc af3f 65a3 923f

lstm_cell_2.bias_hh f4 [128]
1.3249747 0.75502765 0.5342853 0.8920154 0.81819576 1.0453112 0.7863453 0.63805807
1.2446511 1.7537389 0.41769546 1.0088692 1.3842331 0.6829758 1.5192401 0.90294045
0.7550853 1.2029625 0.4874214 1.026278 1.0779148 1.3196511 0.9699807 1.8105091
1.6535012 1.855465 0.4866771 1.104672 0.7730297 1.560476 1.3478806 1.5394595
-0.961251 -0.5259157 -1.3750067 -1.6037428 -1.0921557 -0.92956084 -0.7035817 -1.0398703
-2.1089303 -1.5904266 -1.8159121 -0.97872883 -1.1371541 -0.8225818 -1.5667233 -0.6769447
-0.7667001 -1.4772433 -1.1064445 -0.93089443 -1.4207561 -0.9119235 -1.1765248 -0.70083845
-0.9933489 -1.0660684 -1.0144913 -0.43741515 -0.97132844 -1.8290176 -1.3181944 -1.5874029
0.038591243 -0.21972561 -0.048924394 0.25000536 -0.009844205 -0.007844843 -0.0010031653 -0.6929985
0.13801405 -0.10937834 0.36548254 -0.053700898 0.04738713 0.20660946 0.107167214 0.02645132
0.011811224 0.18788013 -0.010910184 -0.045335907 0.22442421 -0.039908797 -0.23808165 -0.14703333
0.106248535 -0.18785276 0.034454126 1.1731182 -0.1250785 0.04560753 0.028389638 0.05752206
1.1110386 0.5990303 -0.012736713 0.30797106 0.49149805 1.3466194 0.6854767 0.18751931
0.8672614 1.4822648 0.18555148 1.3724926 1.0357629 1.0444194 1.0657705 1.0352218
1.203871 1.1346356 0.7468979 0.9758532 1.3744075 1.6059489 0.5774953 1.0158713
1.3234967 0.86129135 1.2093889 -0.50729465 0.64428717 0.94932157 1.6766405 0.9068564
00000000: c598 a93f 7e49 413f ecc6 083f 1f5b 643f
00000010: 4775 513f c2cc 853f ed4d 493f c657 233f
00000020: ba50 9f3f 847a e03f 2edc d53e a022 813f
00000030: 8d2e b13f 81d7 2e3f 7676 c23f 1b27 673f
00000040: 454d 413f adfa 993f 4c8f f93e 145d 833f
00000050: 1df9 893f 54ea a83f a850 783f c3be e73f
00000060: eda5 d33f e17f ed3f be2d f93e e465 8d3f
00000070: 46e5 453f adbd c73f 5a87 ac3f 020d c53f
00000080: 8c14 76bf 69a2 06bf 3800 b0bf 7247 cdbf
00000090: c2cb 8bbf b3f7 6dbf ee1d 34bf 781a 85bf
000000a0: b7f8 06c0 1993 cbbf cf6f e8bf f98d 7abf
000000b0: 448e 91bf b994 52bf 648a c8bf 3f4c 2dbf
000000c0: 7546 44bf 4f16 bdbf f99f 8dbf 194f 6ebf
000000d0: 56db b5bf d273 69bf 5d98 96bf 266a 33bf
000000e0: 1d4c 7ebf ee74 88bf dada 81bf e1f4 dfbe
000000f0: fba8 78bf 401d eabf 98ba a8bf 0530 cbbf
00000100: da11 1e3d c0ff 60be f264 48bd b400 803e
00000110: 9749 21bc a887 00bc a47c 83ba 5a68 31bf
00000120: 8e53 0d3e c001 e0bd 8720 bb3e 79f5 5bbd
00000130: 0219 423d 6e91 533e 7c7a db3d 70b0 d83c
00000140: dd83 413c a663 403e a1c0 32bc 25b2 39bd
00000150: 76cf 653e 6877 23bd adcb 73be e88f 16be
00000160: d598 d93d 795c 40be c51f 0d3d bd28 963f
00000170: 9414 00be f6ce 3a3d 6391 e83c 409c 6b3d
00000180: 8336 8e3f 0d5a 193f a5ad 50bc 62ae 9d3e
00000190: a2a5 fb3e 065e ac3f 677b 2f3f 1005 403e
000001a0: d804 5e3f daba bd3f 3501 3e3e d6ad af3f
000001b0: e193 843f 89af 853f 2b6b 883f 2682 843f
000001c0: 7218 9a3f bd3b 913f b334 3f3f 84d1 793f
000001d0: 96ec af3f bc8f cd3f bbd6 133f 1208 823f
000001e0: 5768 a93f 977d 5c3f 41cd 9a3f 10de 01bf
000001f0: 01f0 243f bd06 733f 289c d63f be27 683f

fc_1.weight f4 [64, 32]
1.1407369 -0.21051176 -0.02100118 -0.6228702 -2.0942824 1.8932915 -1.245627 3.9473803
0.18593934 0.26070002 1.1631699 1.7645617 -2.3496592 -0.29907745 0.47442603 0.9812709
-1.199633 -1.3357416 0.28458446 -0.34832314 -0.22770327 0.41255918 2.4571254 -0.18884346
0.5739601 -1.5973094 -0.24209921 -0.39185384 1.5855522 0.27948555 -0.32301953 -1.219703
0.7884133 -0.1735469 0.89508456 2.1382847 0.5839221 0.6474472 -0.65224785 0.52896136
0.61910063 2.700238 -0.50022274 -0.07331675 -0.8490972 -0.18115598 -3.7577696 0.5820051
-0.79875624 0.1096858 2.2810473 0.67073447 -1.3101164 -0.0033845739 -0.2582587 -2.324509
-0.5829807 2.5600395 0.26283005 0.007739761 -0.7463246 -0.21453984 0.08585992 0.81264055
1.4607441 -2.3755088 2.3538525 0.9070892 1.3575196 -1.0305743 0.5776767 0.692857
0.80349714 0.44277602 -1.2175399 0.37866792 1.0669748 0.120835766 0.22565699 0.4886507
-0.27523467 -0.70552826 -0.6181198 2.4220893 -1.3457706 -2.3398097 0.5814397 0.2995891
1.2132076 -0.2584592 -2.3829103 -0.23214011 0.36047482 -2.0990813 0.9252517 -0.40013295
-0.006821844 -0.42676285 2.374445 0.71898144 3.0873652 -2.0300775 0.42214432 -3.4815884
1.0110161 -0.006455553 0.16888979 -0.7032861 1.4524705 0.84227276 1.084679 -0.92564267
0.22839089 0.48966902 -2.1378493 -0.30505672 2.2762125 -0.4921323 0.44736254 0.3930305
-0.40023875 0.37755576 3.8210435 0.49961767 0.5292713 -2.2315824 -0.030958405 -0.41979906
0.5180121 -0.7764956 0.32765412 1.3391266 -0.12569387 -1.5805461 0.7865956 -0.55811334
-1.6222235 0.71255136 -0.9513328 -1.2208313 0.5008583 0.5904159 -0.46930033 -0.15270302
-0.4465046 -1.2154114 -0.44148436 0.5524428 -0.93470407 0.77243465 -0.1539166 -0.13364904
-0.40683225 0.6653553 -0.58824277 0.8147698 -0.8240258 0.98601514 -1.3865244 5.9120207
0.21167395 1.3910718 1.5530286 -0.9722932 6.9998584 0.09883205 -1.0094765 -1.105753
1.229858 1.2133307 -1.7076321 0.85749894 1.2797924 -0.34813526 -0.76172495 -2.3077993
0.044477895 0.15448725 -0.047228076 0.6994407 0.73246783 -0.02593135 -1.4199624 -0.3456493
-0.9719248 1.3528214 0.27851117 0.381151 -0.872087 -1.3348745 -2.1290786 -0.3779652
2.400268 -0.2903455 0.7729283 -2.0759213 0.34971434 0.3844911 0.48316172 0.20998429
2.48195 0.9465217 1.3437964 0.7376536 0.79942805 0.9243339 -0.8960408 0.7614032
-0.6312038 -1.2241521 2.4436858 3.0896654 -1.6439708 0.31644732 0.43248993 -1.5859262
0.08631404 1.8601917 -0.0017388926 -0.0877116 -0.35875136 -1.9833978 -0.98542255 -0.5230626
-0.8935846 1.1904827 -0.049212903 -1.3221279 0.93937546 1.1071974 -0.4110225 -0.75487876
1.592932 -0.17617464 -0.14863068 1.9433845 0.36760393 0.5182272 2.461653 -2.1128747
1.9761612 -1.3723968 -1.0911632 0.48496115 1.7445937 -0.38638914 -0.5029716 -1.432152
1.240809 -1.5253812 0.57472014 0.661269 -0.4112636 -0.7398348 -2.0691285 -2.4644637
00000000: ab03 923f 6590 57be ab0a acbc 6c74 1fbf
00000010: b908 06c0 6057 f23f b570 9fbf e1a1 7c40
00000020: e266 3e3e 797a 853e c0e2 943f 28dd e13f
00000030: d160 16c0 ae20 99be f8e7 f23e 9234 7b3f
00000040: 938d 99bf 95f9 aabf 0eb5 913e 6957 b2be
00000050: 0c2b 69be f53a d33e 8b41 1d40 2e60 41be
00000060: 0def 123f a274 ccbf dbe8 77be 11a1 c8be
00000070: 60f3 ca3f bb18 8f3e d162 a5be 3a1f 9cbf
00000080: 74d5 493f 47b6 31be 4324 653f a8d9 0840
00000090: eb7b 153f 1abf 253f b7f9 26bf 036a 073f
000000a0: 617d 1e3f b3d0 2c40 990e 00bf 1827 96bd
000000b0: 6f5e 59bf f480 39be 4c7f 70c0 49fe 143f
000000c0: 4a7b 4cbf f3a2 e03d aefc 1140 41b5 2b3f
000000d0: e5b1 a7bf bacf 5dbb 7c3a 84be c1c4 14c0
000000e0: 393e 15bf b0d7 2340 a991 863e d29d fd3b
000000f0: 210f 3fbf 55b0 5bbe 53d7 af3d 3609 503f
00000100: aaf9 ba3f 5608 18c0 85a5 1640 ff36 683f
00000110: 34c3 ad3f dce9 83bf 9fe2 133f 145f 313f
00000120: fdb1 4d3f 8ab3 e23e 59d8 9bbf c3e0 c13e
00000130: a192 883f be78 f73d a012 673e 6d30 fa3e
00000140: 8feb 8cbe 809d 34bf 193d 1ebf 8303 1b40
00000150: 3642 acbf 71bf 15c0 3bd9 143f be63 993e
00000160: 634a 9b3f c454 84be 9a81 18c0 23b6 6dbe
00000170: 2890 b83e 5957 06c0 4cdd 6c3f 3ade ccbe
00000180: c689 dfbb a980 dabe e8f6 1740 2b0f 383f
00000190: 6497 4540 caec 01c0 4d23 d83e 58d2 5ec0
000001a0: fa68 813f 1b89 d3bb 72f1 2c3e 8f0a 34bf
000001b0: 8eea b93f 309f 573f c3d6 8a3f ebf6 6cbf
000001c0: 4ddf 693e e6b5 fa3e 86d2 08c0 6530 9cbe
000001d0: 77ad 1140 c4f8 fbbe b40c e53e 4b3b c93e
000001e0: 18ec ccbe fd4e c13e fa8b 7440 e3cd ff3e
000001f0: 537e 073f 3fd2 0ec0 7b9c fdbc e7ef d6be
00000200: 719c 043f 6ac8 46bf 48c2 a73e 8068 ab3f
00000210: e5b5 00be 564f cabf 545e 493f 84e0 0ebf
00000220: 05a5 cfbf c469 363f 8c8a 73bf 3344 9cbf
00000230: 4038 003f 7f25 173f 2248 f0be 2e5e 1cbe
00000240: 409c e4be 9a92 9bbf 3d0a e2be e46c 0d3f
00000250: c448 6fbf 47be 453f 509c 1dbe 4bdb 08be
00000260: 514c d0be ba54 2a3f 1497 16bf c194 503f
00000270: 5bf3 52bf 7d6b 7c3f a279 b1bf 462f bd40
00000280: 0ec1 583e a40e b23f a4c9 c63f 35e8 78bf
00000290: d7fe df40 7568 ca3d 8736 81bf 5089 8dbf
000002a0: fd6b 9d3f 6c4e 9b3f b093 dabf 0d85 5b3f
000002b0: 3dd0 a33f c93e b2be 6800 43bf fcb2 13c0
000002c0: 742e 363d e831 1e3e 3a72 41bd 8c0e 333f
000002d0: 0383 3b3f fc6d d4bc 54c1 b5bf f2f8 b0be
000002e0: 10d0 78bf 4029 ad3f 0499 8e3e 3926 c33e
000002f0: 1841 5fbf 2bdd aabf d342 08c0 a884 c1be
00000300: fe9d 1940 2aa8 94be a1de 453f e5db 04c0
00000310: c20d b33e 04dc c43e f960 f73e 1f06 573e
00000320: 45d8 1e40 3f4f 723f 8501 ac3f ded6 3c3f
00000330: 51a7 4c3f 25a1 6c3f ee62 65bf 52eb 423f
00000340: 9296 21bf 04b1 9cbf 5965 1c40 14bd 4540
00000350: a36d d2bf 6205 a23e 526f dd3e a1ff cabf
00000360: 6ac5 b03d c31a ee3f 8eeb e3ba 24a2 b3bd
00000370: 42ae b7be fbdf fdbf a744 7cbf 6ee7 05bf
00000380: f6c1 64bf bd61 983f 7893 49bd 7d3b a9bf
00000390: e97a 703f a5b8 8d3f 8b71 d2be bc3f 41bf
000003a0: 32e5 cb3f 2067 34be a432 18be d3c0 f83f
000003b0: 9536 bc3e 8aaa 043f b98b 1d40 5739 07c0
000003c0: daf2 fc3f b3aa afbf 3cab 8bbf d44c f83e
000003d0: d94e df3f ccd4 c5be bfc2 00bf c250 b7bf
000003e0: d4d2 9e3f b13f c3bf dc20 133f ed48 293f
000003f0: 2591 d2be d065 3dbf 9a6c 04c0 c6b9 1dc0

fc_1.bias f4 [64]
0.2965413 -0.54120505 0.24869885 -0.17946644 -0.8994688 -0.98403245 0.1415305 -1.5552626
0.105095305 -0.3373496 -0.73324734 -0.9657339 -0.02765476 0.10451081 -1.5176 -1.9357152
-0.7376094 -0.7033275 -0.28478962 -0.4587296 -0.17044328 -0.44213548 -1.5010465 -1.5796146
-0.7329875 0.93616253 -0.20121638 -0.21044084 -2.2394307 -0.8513522 -0.71814597 -0.01219686
-1.1298509 -1.253628 -1.6602548 -0.31321925 0.012979422 -0.3345175 -0.06446198 0.36478332
-0.37086332 -0.9884162 0.6179241 0.5237952 -0.97353417 0.22854781 -0.8224731 -0.6354698
0.015521066 0.84586704 -1.8532182 -0.009112991 -0.74156296 -0.5502182 -0.8003542 -0.10440345
-1.0286072 0.080556996 -0.03228662 -0.8513509 -0.6737858 -1.6380005 0.7652066 0.08538471
00000000: 43d4 973e 6a8c 0abf e9aa 7e3e 0dc6 37be
00000010: 9643 66bf 8de9 7bbf 5fed 103e d812 c7bf
00000020: 353c d73d 16b9 acbe 19b6 3bbf 563a 77bf
00000030: 3c8c e2bc c309 d63d b840 c2bf 84c5 f7bf
00000040: f8d3 3cbf 450d 34bf f2cf 91be 9bde eabe
00000050: af88 2ebe 955f e2be 4b22 c0bf d030 cabf
00000060: 12a5 3bbf 59a8 6f3f ab0b 4ebe ce7d 57be
00000070: d552 0fc0 38f2 59bf 6ad8 37bf 57d5 47bc
00000080: f49e 90bf e276 a0bf 3b83 d4bf 465e a0be
00000090: a4a7 543c e145 abbe a404 84bd e1c4 ba3e
000000a0: cce1 bdbe d808 7dbf 4630 1e3f 7117 063f
000000b0: 8939 79bf 7008 6a3e 998d 52bf 26ae 22bf
000000c0: 124c 7e3c be8a 583f 4136 edbf a84e 15bc
000000d0: 12d7 3dbf 1adb 0cbf 03e4 4cbf 7ad1 d5bd
000000e0: 67a9 83bf 11fb a43d fa3e 04bd 22f2 59bf
000000f0: 3a7d 2cbf 00aa d1bf 94e4 433f 2ede ae3d
